#map = affine_map<(d0, d1, d2, d3) -> (d0, d1, d2, d3)>
#map1 = affine_map<(d0, d1) -> (d0, d1)>
#map2 = affine_map<(d0, d1) -> (d1)>
module {
  func.func @lenet(%arg0: tensor<1x1x32x32xf32> {secret.secret} ) -> tensor<1x10xf32> {
    %cst = arith.constant 0.000000e+00 : f32
    %cst_0 = arith.constant dense_resource<torch_tensor_10_torch.float32> : tensor<10xf32>
    %cst_1 = arith.constant dense_resource<torch_tensor_10_84_torch.float32> : tensor<10x84xf32>
    %cst_2 = arith.constant dense_resource<torch_tensor_84_torch.float32> : tensor<84xf32>
    %cst_3 = arith.constant dense_resource
    <torch_tensor_84_120_torch.float32> : tensor<84x120xf32>
    %cst_4 = arith.constant dense_resource<torch_tensor_120_torch.float32> : tensor<120xf32>
    %cst_5 = arith.constant dense_resource<torch_tensor_120_400_torch.float32> : tensor<120x400xf32>
    %cst_6 = arith.constant dense_resource<torch_tensor_16_torch.float32> : tensor<16xf32>
    %cst_7 = arith.constant dense_resource<torch_tensor_16_6_5_5_torch.float32> : tensor<16x6x5x5xf32>
    %cst_8 = arith.constant dense_resource<torch_tensor_6_1_5_5_torch.float32> : tensor<6x1x5x5xf32>
    %cst_9 = arith.constant dense_resource<torch_tensor_6_torch.float32> : tensor<6xf32>
    %cst_10 = arith.constant 4.000000e+00 : f32
    %0 = tensor.empty() : tensor<1x6x28x28xf32>
    %broadcasted = linalg.broadcast ins(%cst_9 : tensor<6xf32>) outs(%0 : tensor<1x6x28x28xf32>) dimensions = [0, 2, 3]
    %1 = linalg.conv_2d_nchw_fchw {dilations = dense<1> : vector<2xi64>, strides = dense<1> : vector<2xi64>} ins(%arg0, %cst_8 : tensor<1x1x32x32xf32>, tensor<6x1x5x5xf32>) outs(%broadcasted : tensor<1x6x28x28xf32>) -> tensor<1x6x28x28xf32>
    %2 = linalg.generic {indexing_maps = [#map, #map], iterator_types = ["parallel", "parallel", "parallel", "parallel"], domain_lower = -6.67 : f64, domain_upper = 6.55 : f64 } ins(%1 : tensor<1x6x28x28xf32>) outs(%0 : tensor<1x6x28x28xf32>) {
    ^bb0(%in: f32, %out: f32):
      %32 = arith.cmpf ugt, %in, %cst : f32
      %33 = arith.select %32, %in, %cst : f32
      linalg.yield %33 : f32
    } -> tensor<1x6x28x28xf32>
    %3 = tensor.empty() : tensor<1x6x14x14xf32>
    %4 = linalg.fill ins(%cst : f32) outs(%3 : tensor<1x6x14x14xf32>) -> tensor<1x6x14x14xf32>
    %5 = tensor.empty() : tensor<2x2xf32>
    %6 = linalg.pooling_nchw_sum {dilations = dense<1> : vector<2xi64>, strides = dense<2> : vector<2xi64>} ins(%2, %5 : tensor<1x6x28x28xf32>, tensor<2x2xf32>) outs(%4 : tensor<1x6x14x14xf32>) -> tensor<1x6x14x14xf32>
    %7 = linalg.generic {indexing_maps = [#map, #map], iterator_types = ["parallel", "parallel", "parallel", "parallel"]} ins(%6 : tensor<1x6x14x14xf32>) outs(%3 : tensor<1x6x14x14xf32>) {
    ^bb0(%in: f32, %out: f32):
      %32 = arith.divf %in, %cst_10 : f32
      linalg.yield %32 : f32
    } -> tensor<1x6x14x14xf32>
    %8 = tensor.empty() : tensor<1x16x10x10xf32>
    %broadcasted_11 = linalg.broadcast ins(%cst_6 : tensor<16xf32>) outs(%8 : tensor<1x16x10x10xf32>) dimensions = [0, 2, 3]
    %9 = linalg.conv_2d_nchw_fchw {dilations = dense<1> : vector<2xi64>, strides = dense<1> : vector<2xi64>} ins(%7, %cst_7 : tensor<1x6x14x14xf32>, tensor<16x6x5x5xf32>) outs(%broadcasted_11 : tensor<1x16x10x10xf32>) -> tensor<1x16x10x10xf32>
    %10 = linalg.generic {indexing_maps = [#map, #map], iterator_types = ["parallel", "parallel", "parallel", "parallel"], domain_lower = -23.82 : f64, domain_upper = 14.38 : f64} ins(%9 : tensor<1x16x10x10xf32>) outs(%8 : tensor<1x16x10x10xf32>) {
    ^bb0(%in: f32, %out: f32):
      %32 = arith.cmpf ugt, %in, %cst : f32
      %33 = arith.select %32, %in, %cst : f32
      linalg.yield %33 : f32
    } -> tensor<1x16x10x10xf32>
    %11 = tensor.empty() : tensor<1x16x5x5xf32>
    %12 = linalg.fill ins(%cst : f32) outs(%11 : tensor<1x16x5x5xf32>) -> tensor<1x16x5x5xf32>
    %13 = linalg.pooling_nchw_sum {dilations = dense<1> : vector<2xi64>, strides = dense<2> : vector<2xi64>} ins(%10, %5 : tensor<1x16x10x10xf32>, tensor<2x2xf32>) outs(%12 : tensor<1x16x5x5xf32>) -> tensor<1x16x5x5xf32>
    %14 = linalg.generic {indexing_maps = [#map, #map], iterator_types = ["parallel", "parallel", "parallel", "parallel"]} ins(%13 : tensor<1x16x5x5xf32>) outs(%11 : tensor<1x16x5x5xf32>) {
    ^bb0(%in: f32, %out: f32):
      %32 = arith.divf %in, %cst_10 : f32
      linalg.yield %32 : f32
    } -> tensor<1x16x5x5xf32>
    %collapsed = tensor.collapse_shape %14 [[0], [1, 2, 3]] : tensor<1x16x5x5xf32> into tensor<1x400xf32>
    %15 = tensor.empty() : tensor<400x120xf32>
    %transposed = linalg.transpose ins(%cst_5 : tensor<120x400xf32>) outs(%15 : tensor<400x120xf32>) permutation = [1, 0]
    %16 = tensor.empty() : tensor<1x120xf32>
    %17 = linalg.fill ins(%cst : f32) outs(%16 : tensor<1x120xf32>) -> tensor<1x120xf32>
    %18 = linalg.matmul ins(%collapsed, %transposed : tensor<1x400xf32>, tensor<400x120xf32>) outs(%17 : tensor<1x120xf32>) -> tensor<1x120xf32>
    %19 = linalg.generic {indexing_maps = [#map1, #map2, #map1], iterator_types = ["parallel", "parallel"]} ins(%18, %cst_4 : tensor<1x120xf32>, tensor<120xf32>) outs(%16 : tensor<1x120xf32>) {
    ^bb0(%in: f32, %in_14: f32, %out: f32):
      %32 = arith.addf %in, %in_14 : f32
      linalg.yield %32 : f32
    } -> tensor<1x120xf32>
    %20 = linalg.generic {indexing_maps = [#map1, #map1], iterator_types = ["parallel", "parallel"], domain_lower = -23.33 : f64, domain_upper = 19.68 : f64} ins(%19 : tensor<1x120xf32>) outs(%16 : tensor<1x120xf32>) {
    ^bb0(%in: f32, %out: f32):
      %32 = arith.cmpf ugt, %in, %cst : f32
      %33 = arith.select %32, %in, %cst : f32
      linalg.yield %33 : f32
    } -> tensor<1x120xf32>
    %21 = tensor.empty() : tensor<120x84xf32>
    %transposed_12 = linalg.transpose ins(%cst_3 : tensor<84x120xf32>) outs(%21 : tensor<120x84xf32>) permutation = [1, 0]
    %22 = tensor.empty() : tensor<1x84xf32>
    %23 = linalg.fill ins(%cst : f32) outs(%22 : tensor<1x84xf32>) -> tensor<1x84xf32>
    %24 = linalg.matmul ins(%20, %transposed_12 : tensor<1x120xf32>, tensor<120x84xf32>) outs(%23 : tensor<1x84xf32>) -> tensor<1x84xf32>
    %25 = linalg.generic {indexing_maps = [#map1, #map2, #map1], iterator_types = ["parallel", "parallel"]} ins(%24, %cst_2 : tensor<1x84xf32>, tensor<84xf32>) outs(%22 : tensor<1x84xf32>) {
    ^bb0(%in: f32, %in_14: f32, %out: f32):
      %32 = arith.addf %in, %in_14 : f32
      linalg.yield %32 : f32
    } -> tensor<1x84xf32>
    %26 = linalg.generic {indexing_maps = [#map1, #map1], iterator_types = ["parallel", "parallel"], domain_lower = -20.67 : f64, domain_upper = 20.97 : f64} ins(%25 : tensor<1x84xf32>) outs(%22 : tensor<1x84xf32>) {
    ^bb0(%in: f32, %out: f32):
      %32 = arith.cmpf ugt, %in, %cst : f32
      %33 = arith.select %32, %in, %cst: f32
      linalg.yield %33 : f32
    } -> tensor<1x84xf32>
    %27 = tensor.empty() : tensor<84x10xf32>
    %transposed_13 = linalg.transpose ins(%cst_1 : tensor<10x84xf32>) outs(%27 : tensor<84x10xf32>) permutation = [1, 0]
    %28 = tensor.empty() : tensor<1x10xf32>
    %29 = linalg.fill ins(%cst : f32) outs(%28 : tensor<1x10xf32>) -> tensor<1x10xf32>
    %30 = linalg.matmul ins(%26, %transposed_13 : tensor<1x84xf32>, tensor<84x10xf32>) outs(%29 : tensor<1x10xf32>) -> tensor<1x10xf32>
    %31 = linalg.generic {indexing_maps = [#map1, #map2, #map1], iterator_types = ["parallel", "parallel"]} ins(%30, %cst_0 : tensor<1x10xf32>, tensor<10xf32>) outs(%28 : tensor<1x10xf32>) {
    ^bb0(%in: f32, %in_14: f32, %out: f32):
      %32 = arith.addf %in, %in_14 : f32
      linalg.yield %32 : f32
    } -> tensor<1x10xf32>
    return %31 : tensor<1x10xf32>
  }
}

{-#
  dialect_resources: {
    builtin: {
      torch_tensor_10_torch.float32: "…",
      torch_tensor_10_84_torch.float32: "…",
      torch_tensor_84_torch.float32: "…",
      torch_tensor_84_120_torch.float32: "…",
      torch_tensor_120_torch.float32: "…",
      torch_tensor_120_400_torch.float32: "…",
      torch_tensor_16_torch.float32: "…",
      torch_tensor_16_6_5_5_torch.float32: "…",
      torch_tensor_6_1_5_5_torch.float32: "…",
      torch_tensor_6_torch.float32: "0x040000001A0F933E8079FF3D4BFA603EF615433D499F0F3C4548063E"
    }
  }
#-}
