// MLIR mimicking CROSS_dev/jaxite_word/matvec_test.py (degree=16, 8 slots).
// Test vector (for later validation): [0.25, 0.5, 0.75, 1.0, 2.0, 3.0, 4.0, 5.0]
//
// CROSS crypto params (matvec_test.py setUp):
//   degree=16, num_slots=8, dnum=3, r=4, c=4
//   scaling_factor=563019763943521  (pass flag at lowering time, see below)
//   q_towers / p_towers preset via ckks.schemeParam on this module
//
// Lowering flags to match remaining CROSS params:
//   --torch-linalg-to-ckks=ciphertext-degree=8
//   --jaxiteword-configure-crypto-context=entry-function=matvec_identity,dnum=3,r=4,c=4,scaling-factor=563019763943521

module attributes {
  scheme.ckks,
  ckks.schemeParam = #ckks.scheme_param<
    logN = 4,
    Q = [1073742881, 1073742721, 1073741441, 1073741857, 524353],
    P = [1073740609, 1073739937, 1073739649],
    logDefaultScale = 45
  >

} {
  func.func @matvec_identity(%arg0: tensor<8xf32> {secret.secret}) -> tensor<8xf32> {
    %matrix = arith.constant dense<[
      [… > : tensor<8x8xf32>
    %out = arith.constant dense<0.000000e+00> : tensor<8xf32>
    %0 = linalg.matvec ins(%matrix, %arg0 : tensor<8x8xf32>, tensor<8xf32>) outs(%out : tensor<8xf32>) -> tensor<8xf32>
    return %0 : tensor<8xf32>
  }

  // Shift matrix from CROSS matvec_test.py: result[i] = vector[(i + 1) % n].
  func.func @matvec_shift(%arg0: tensor<8xf32> {secret.secret}) -> tensor<8xf32> {
    %matrix = arith.constant dense<[
      [… > : tensor<8x8xf32>
    %out = arith.constant dense<0.000000e+00> : tensor<8xf32>
    %0 = linalg.matvec ins(%matrix, %arg0 : tensor<8x8xf32>, tensor<8xf32>) outs(%out : tensor<8xf32>) -> tensor<8xf32>
    return %0 : tensor<8xf32>
  }


  // Matrix from np.random.seed(42); np.random.uniform(0.1, 2.0, (8, 8))
  func.func @matvec_random(%arg0: tensor<8xf32> {secret.secret}) -> tensor<8xf32> {
    %matrix = arith.constant dense<[
      [… > : tensor<8x8xf32>
    %out = arith.constant dense<0.000000e+00> : tensor<8xf32>
    %0 = linalg.matvec ins(%matrix, %arg0 : tensor<8x8xf32>, tensor<8xf32>) outs(%out : tensor<8xf32>) -> tensor<8xf32>
    return %0 : tensor<8xf32>
  }

  // Matmat-vector chain from CROSS matvec_test.py:
  // np.random.seed(123); A = round(uniform(0.5, 1.5), 2);
  // B = round(uniform(0.5, 1.5), 2); computes A @ (B @ v).
  func.func @matvec_chain(%arg0: tensor<8xf32> {secret.secret}) -> tensor<8xf32> {
    %matrix_b = arith.constant dense<[
      [… > : tensor<8x8xf32>
    %matrix_a = arith.constant dense<[
      [… > : tensor<8x8xf32>
    %out_b = arith.constant dense<0.000000e+00> : tensor<8xf32>
    %out_a = arith.constant dense<0.000000e+00> : tensor<8xf32>
    %0 = linalg.matvec ins(%matrix_b, %arg0 : tensor<8x8xf32>, tensor<8xf32>) outs(%out_b : tensor<8xf32>) -> tensor<8xf32>
    %1 = linalg.matvec ins(%matrix_a, %0 : tensor<8x8xf32>, tensor<8xf32>) outs(%out_a : tensor<8xf32>) -> tensor<8xf32>
    return %1 : tensor<8xf32>
  }

}
