module attributes {tf_saved_model.semantics} {
  memref.global "private" constant @__constant_1x16xi8 : memref<1x16xi8> = dense<[[-39, 59, 39, 21, 28, -32, -34, -35, 15, 27, -59, -41, 18, -35, -7, 127]]> {alignment = 64 : i64}
  memref.global "private" constant @__constant_16xi32_0 : memref<16xi32> = dense<[-729, 1954, 610, 0, 241, -471, -35, -867, 571, 581, 4260, 3943, 591, 0, -889, -5103]> {alignment = 64 : i64}
  memref.global "private" constant @__constant_16x16xi8 : memref<16x16xi8> = dense<"…"> {alignment = 64 : i64}
  memref.global "private" constant @__constant_16xi32 : memref<16xi32> = dense<[0, 0, -5438, -5515, -1352, -1500, -4152, -84, 3396, 0, 1981, -5581, 0, -6964, 3407, -7217]> {alignment = 64 : i64}
  memref.global "private" constant @__constant_16x1xi8 : memref<16x1xi8> = dense<[[-9], [-54], [57], [71], [104], [115], [98], [99], [64], [-26], [127], [25], [-82], [68], [95], [86]]> {alignment = 64 : i64}
  func.func @main(%arg0: memref<1x1xi32, strided<[?, ?], offset: ?>> {iree.identifier = "serving_default_dense_input:0", tf_saved_model.index_path = ["dense_input"]}) -> (memref<1x1xi32> {iree.identifier = "StatefulPartitionedCall:0", tf_saved_model.index_path = ["dense_2"]}) attributes {tf_saved_model.exported_names = ["serving_default"]} {
    %c429_i32 = arith.constant 429 : i32
    %c0 = arith.constant 0 : index
    %c1 = arith.constant 1 : index
    %c2 = arith.constant 2 : index
    %c3 = arith.constant 3 : index
    %c4 = arith.constant 4 : index
    %c5 = arith.constant 5 : index
    %c6 = arith.constant 6 : index
    %c7 = arith.constant 7 : index
    %c8 = arith.constant 8 : index
    %c9 = arith.constant 9 : index
    %c10 = arith.constant 10 : index
    %c11 = arith.constant 11 : index
    %c12 = arith.constant 12 : index
    %c13 = arith.constant 13 : index
    %c14 = arith.constant 14 : index
    %c15 = arith.constant 15 : index
    %0 = memref.get_global @__constant_16x1xi8 : memref<16x1xi8>
    %1 = memref.get_global @__constant_16xi32 : memref<16xi32>
    %2 = memref.get_global @__constant_16x16xi8 : memref<16x16xi8>
    %3 = memref.get_global @__constant_16xi32_0 : memref<16xi32>
    %4 = memref.get_global @__constant_1x16xi8 : memref<1x16xi8>
    %5 = memref.load %1[%c0] : memref<16xi32>
    %6 = memref.load %1[%c1] : memref<16xi32>
    %7 = memref.load %1[%c2] : memref<16xi32>
    %8 = memref.load %1[%c3] : memref<16xi32>
    %9 = memref.load %1[%c4] : memref<16xi32>
    %10 = memref.load %1[%c5] : memref<16xi32>
    %11 = memref.load %1[%c6] : memref<16xi32>
    %12 = memref.load %1[%c7] : memref<16xi32>
    %13 = memref.load %1[%c8] : memref<16xi32>
    %14 = memref.load %1[%c9] : memref<16xi32>
    %15 = memref.load %1[%c10] : memref<16xi32>
    %16 = memref.load %1[%c11] : memref<16xi32>
    %17 = memref.load %1[%c12] : memref<16xi32>
    %18 = memref.load %1[%c13] : memref<16xi32>
    %19 = memref.load %1[%c14] : memref<16xi32>
    %20 = memref.load %1[%c15] : memref<16xi32>
    %alloc = memref.alloc() {alignment = 64 : i64} : memref<1x1xi32>
    %21 = memref.load %3[%c0] : memref<16xi32>
    %22 = memref.load %0[%c0, %c0] : memref<16x1xi8>
    %23 = memref.load %arg0[%c0, %c0] : memref<1x1xi32, strided<[?, ?], offset: ?>>
    %24 = arith.extsi %22 : i8 to i32
    %25 = arith.muli %23, %24 : i32
    %26 = arith.addi %5, %25 : i32
    %27 = memref.load %2[%c0, %c0] : memref<16x16xi8>
    %28 = arith.extsi %27 : i8 to i32
    %29 = arith.muli %26, %28 : i32
    %30 = arith.addi %21, %29 : i32
    %31 = memref.load %0[%c1, %c0] : memref<16x1xi8>
    %32 = arith.extsi %31 : i8 to i32
    %33 = arith.muli %23, %32 : i32
    %34 = arith.addi %6, %33 : i32
    %35 = memref.load %2[%c0, %c1] : memref<16x16xi8>
    %36 = arith.extsi %35 : i8 to i32
    %37 = arith.muli %34, %36 : i32
    %38 = arith.addi %30, %37 : i32
    %39 = memref.load %0[%c2, %c0] : memref<16x1xi8>
    %40 = arith.extsi %39 : i8 to i32
    %41 = arith.muli %23, %40 : i32
    %42 = arith.addi %7, %41 : i32
    %43 = memref.load %2[%c0, %c2] : memref<16x16xi8>
    %44 = arith.extsi %43 : i8 to i32
    %45 = arith.muli %42, %44 : i32
    %46 = arith.addi %38, %45 : i32
    %47 = memref.load %0[%c3, %c0] : memref<16x1xi8>
    %48 = arith.extsi %47 : i8 to i32
    %49 = arith.muli %23, %48 : i32
    %50 = arith.addi %8, %49 : i32
    %51 = memref.load %2[%c0, %c3] : memref<16x16xi8>
    %52 = arith.extsi %51 : i8 to i32
    %53 = arith.muli %50, %52 : i32
    %54 = arith.addi %46, %53 : i32
    %55 = memref.load %0[%c4, %c0] : memref<16x1xi8>
    %56 = arith.extsi %55 : i8 to i32
    %57 = arith.muli %23, %56 : i32
    %58 = arith.addi %9, %57 : i32
    %59 = memref.load %2[%c0, %c4] : memref<16x16xi8>
    %60 = arith.extsi %59 : i8 to i32
    %61 = arith.muli %58, %60 : i32
    %62 = arith.addi %54, %61 : i32
    %63 = memref.load %0[%c5, %c0] : memref<16x1xi8>
    %64 = arith.extsi %63 : i8 to i32
    %65 = arith.muli %23, %64 : i32
    %66 = arith.addi %10, %65 : i32
    %67 = memref.load %2[%c0, %c5] : memref<16x16xi8>
    %68 = arith.extsi %67 : i8 to i32
    %69 = arith.muli %66, %68 : i32
    %70 = arith.addi %62, %69 : i32
    %71 = memref.load %0[%c6, %c0] : memref<16x1xi8>
    %72 = arith.extsi %71 : i8 to i32
    %73 = arith.muli %23, %72 : i32
    %74 = arith.addi %11, %73 : i32
    %75 = memref.load %2[%c0, %c6] : memref<16x16xi8>
    %76 = arith.extsi %75 : i8 to i32
    %77 = arith.muli %74, %76 : i32
    %78 = arith.addi %70, %77 : i32
    %79 = memref.load %0[%c7, %c0] : memref<16x1xi8>
    %80 = arith.extsi %79 : i8 to i32
    %81 = arith.muli %23, %80 : i32
    %82 = arith.addi %12, %81 : i32
    %83 = memref.load %2[%c0, %c7] : memref<16x16xi8>
    %84 = arith.extsi %83 : i8 to i32
    %85 = arith.muli %82, %84 : i32
    %86 = arith.addi %78, %85 : i32
    %87 = memref.load %0[%c8, %c0] : memref<16x1xi8>
    %88 = arith.extsi %87 : i8 to i32
    %89 = arith.muli %23, %88 : i32
    %90 = arith.addi %13, %89 : i32
    %91 = memref.load %2[%c0, %c8] : memref<16x16xi8>
    %92 = arith.extsi %91 : i8 to i32
    %93 = arith.muli %90, %92 : i32
    %94 = arith.addi %86, %93 : i32
    %95 = memref.load %0[%c9, %c0] : memref<16x1xi8>
    %96 = arith.extsi %95 : i8 to i32
    %97 = arith.muli %23, %96 : i32
    %98 = arith.addi %14, %97 : i32
    %99 = memref.load %2[%c0, %c9] : memref<16x16xi8>
    %100 = arith.extsi %99 : i8 to i32
    %101 = arith.muli %98, %100 : i32
    %102 = arith.addi %94, %101 : i32
    %103 = memref.load %0[%c10, %c0] : memref<16x1xi8>
    %104 = arith.extsi %103 : i8 to i32
    %105 = arith.muli %23, %104 : i32
    %106 = arith.addi %15, %105 : i32
    %107 = memref.load %2[%c0, %c10] : memref<16x16xi8>
    %108 = arith.extsi %107 : i8 to i32
    %109 = arith.muli %106, %108 : i32
    %110 = arith.addi %102, %109 : i32
    %111 = memref.load %0[%c11, %c0] : memref<16x1xi8>
    %112 = arith.extsi %111 : i8 to i32
    %113 = arith.muli %23, %112 : i32
    %114 = arith.addi %16, %113 : i32
    %115 = memref.load %2[%c0, %c11] : memref<16x16xi8>
    %116 = arith.extsi %115 : i8 to i32
    %117 = arith.muli %114, %116 : i32
    %118 = arith.addi %110, %117 : i32
    %119 = memref.load %0[%c12, %c0] : memref<16x1xi8>
    %120 = arith.extsi %119 : i8 to i32
    %121 = arith.muli %23, %120 : i32
    %122 = arith.addi %17, %121 : i32
    %123 = memref.load %2[%c0, %c12] : memref<16x16xi8>
    %124 = arith.extsi %123 : i8 to i32
    %125 = arith.muli %122, %124 : i32
    %126 = arith.addi %118, %125 : i32
    %127 = memref.load %0[%c13, %c0] : memref<16x1xi8>
    %128 = arith.extsi %127 : i8 to i32
    %129 = arith.muli %23, %128 : i32
    %130 = arith.addi %18, %129 : i32
    %131 = memref.load %2[%c0, %c13] : memref<16x16xi8>
    %132 = arith.extsi %131 : i8 to i32
    %133 = arith.muli %130, %132 : i32
    %134 = arith.addi %126, %133 : i32
    %135 = memref.load %0[%c14, %c0] : memref<16x1xi8>
    %136 = arith.extsi %135 : i8 to i32
    %137 = arith.muli %23, %136 : i32
    %138 = arith.addi %19, %137 : i32
    %139 = memref.load %2[%c0, %c14] : memref<16x16xi8>
    %140 = arith.extsi %139 : i8 to i32
    %141 = arith.muli %138, %140 : i32
    %142 = arith.addi %134, %141 : i32
    %143 = memref.load %0[%c15, %c0] : memref<16x1xi8>
    %144 = arith.extsi %143 : i8 to i32
    %145 = arith.muli %23, %144 : i32
    %146 = arith.addi %20, %145 : i32
    %147 = memref.load %2[%c0, %c15] : memref<16x16xi8>
    %148 = arith.extsi %147 : i8 to i32
    %149 = arith.muli %146, %148 : i32
    %150 = arith.addi %142, %149 : i32
    %151 = memref.load %4[%c0, %c0] : memref<1x16xi8>
    %152 = arith.extsi %151 : i8 to i32
    %153 = arith.muli %150, %152 : i32
    %154 = arith.addi %153, %c429_i32 : i32
    %155 = memref.load %3[%c1] : memref<16xi32>
    %156 = arith.addi %26, %25 : i32
    %157 = memref.load %2[%c1, %c0] : memref<16x16xi8>
    %158 = arith.extsi %157 : i8 to i32
    %159 = arith.muli %156, %158 : i32
    %160 = arith.addi %155, %159 : i32
    %161 = arith.addi %34, %33 : i32
    %162 = memref.load %2[%c1, %c1] : memref<16x16xi8>
    %163 = arith.extsi %162 : i8 to i32
    %164 = arith.muli %161, %163 : i32
    %165 = arith.addi %160, %164 : i32
    %166 = arith.addi %42, %41 : i32
    %167 = memref.load %2[%c1, %c2] : memref<16x16xi8>
    %168 = arith.extsi %167 : i8 to i32
    %169 = arith.muli %166, %168 : i32
    %170 = arith.addi %165, %169 : i32
    %171 = arith.addi %50, %49 : i32
    %172 = memref.load %2[%c1, %c3] : memref<16x16xi8>
    %173 = arith.extsi %172 : i8 to i32
    %174 = arith.muli %171, %173 : i32
    %175 = arith.addi %170, %174 : i32
    %176 = arith.addi %58, %57 : i32
    %177 = memref.load %2[%c1, %c4] : memref<16x16xi8>
    %178 = arith.extsi %177 : i8 to i32
    %179 = arith.muli %176, %178 : i32
    %180 = arith.addi %175, %179 : i32
    %181 = arith.addi %66, %65 : i32
    %182 = memref.load %2[%c1, %c5] : memref<16x16xi8>
    %183 = arith.extsi %182 : i8 to i32
    %184 = arith.muli %181, %183 : i32
    %185 = arith.addi %180, %184 : i32
    %186 = arith.addi %74, %73 : i32
    %187 = memref.load %2[%c1, %c6] : memref<16x16xi8>
    %188 = arith.extsi %187 : i8 to i32
    %189 = arith.muli %186, %188 : i32
    %190 = arith.addi %185, %189 : i32
    %191 = arith.addi %82, %81 : i32
    %192 = memref.load %2[%c1, %c7] : memref<16x16xi8>
    %193 = arith.extsi %192 : i8 to i32
    %194 = arith.muli %191, %193 : i32
    %195 = arith.addi %190, %194 : i32
    %196 = arith.addi %90, %89 : i32
    %197 = memref.load %2[%c1, %c8] : memref<16x16xi8>
    %198 = arith.extsi %197 : i8 to i32
    %199 = arith.muli %196, %198 : i32
    %200 = arith.addi %195, %199 : i32
    %201 = arith.addi %98, %97 : i32
    %202 = memref.load %2[%c1, %c9] : memref<16x16xi8>
    %203 = arith.extsi %202 : i8 to i32
    %204 = arith.muli %201, %203 : i32
    %205 = arith.addi %200, %204 : i32
    %206 = arith.addi %106, %105 : i32
    %207 = memref.load %2[%c1, %c10] : memref<16x16xi8>
    %208 = arith.extsi %207 : i8 to i32
    %209 = arith.muli %206, %208 : i32
    %210 = arith.addi %205, %209 : i32
    %211 = arith.addi %114, %113 : i32
    %212 = memref.load %2[%c1, %c11] : memref<16x16xi8>
    %213 = arith.extsi %212 : i8 to i32
    %214 = arith.muli %211, %213 : i32
    %215 = arith.addi %210, %214 : i32
    %216 = arith.addi %122, %121 : i32
    %217 = memref.load %2[%c1, %c12] : memref<16x16xi8>
    %218 = arith.extsi %217 : i8 to i32
    %219 = arith.muli %216, %218 : i32
    %220 = arith.addi %215, %219 : i32
    %221 = arith.addi %130, %129 : i32
    %222 = memref.load %2[%c1, %c13] : memref<16x16xi8>
    %223 = arith.extsi %222 : i8 to i32
    %224 = arith.muli %221, %223 : i32
    %225 = arith.addi %220, %224 : i32
    %226 = arith.addi %138, %137 : i32
    %227 = memref.load %2[%c1, %c14] : memref<16x16xi8>
    %228 = arith.extsi %227 : i8 to i32
    %229 = arith.muli %226, %228 : i32
    %230 = arith.addi %225, %229 : i32
    %231 = arith.addi %146, %145 : i32
    %232 = memref.load %2[%c1, %c15] : memref<16x16xi8>
    %233 = arith.extsi %232 : i8 to i32
    %234 = arith.muli %231, %233 : i32
    %235 = arith.addi %230, %234 : i32
    %236 = memref.load %4[%c0, %c1] : memref<1x16xi8>
    %237 = arith.extsi %236 : i8 to i32
    %238 = arith.muli %235, %237 : i32
    %239 = arith.addi %154, %238 : i32
    %240 = memref.load %3[%c2] : memref<16xi32>
    %241 = arith.addi %156, %25 : i32
    %242 = memref.load %2[%c2, %c0] : memref<16x16xi8>
    %243 = arith.extsi %242 : i8 to i32
    %244 = arith.muli %241, %243 : i32
    %245 = arith.addi %240, %244 : i32
    %246 = arith.addi %161, %33 : i32
    %247 = memref.load %2[%c2, %c1] : memref<16x16xi8>
    %248 = arith.extsi %247 : i8 to i32
    %249 = arith.muli %246, %248 : i32
    %250 = arith.addi %245, %249 : i32
    %251 = arith.addi %166, %41 : i32
    %252 = memref.load %2[%c2, %c2] : memref<16x16xi8>
    %253 = arith.extsi %252 : i8 to i32
    %254 = arith.muli %251, %253 : i32
    %255 = arith.addi %250, %254 : i32
    %256 = arith.addi %171, %49 : i32
    %257 = memref.load %2[%c2, %c3] : memref<16x16xi8>
    %258 = arith.extsi %257 : i8 to i32
    %259 = arith.muli %256, %258 : i32
    %260 = arith.addi %255, %259 : i32
    %261 = arith.addi %176, %57 : i32
    %262 = memref.load %2[%c2, %c4] : memref<16x16xi8>
    %263 = arith.extsi %262 : i8 to i32
    %264 = arith.muli %261, %263 : i32
    %265 = arith.addi %260, %264 : i32
    %266 = arith.addi %181, %65 : i32
    %267 = memref.load %2[%c2, %c5] : memref<16x16xi8>
    %268 = arith.extsi %267 : i8 to i32
    %269 = arith.muli %266, %268 : i32
    %270 = arith.addi %265, %269 : i32
    %271 = arith.addi %186, %73 : i32
    %272 = memref.load %2[%c2, %c6] : memref<16x16xi8>
    %273 = arith.extsi %272 : i8 to i32
    %274 = arith.muli %271, %273 : i32
    %275 = arith.addi %270, %274 : i32
    %276 = arith.addi %191, %81 : i32
    %277 = memref.load %2[%c2, %c7] : memref<16x16xi8>
    %278 = arith.extsi %277 : i8 to i32
    %279 = arith.muli %276, %278 : i32
    %280 = arith.addi %275, %279 : i32
    %281 = arith.addi %196, %89 : i32
    %282 = memref.load %2[%c2, %c8] : memref<16x16xi8>
    %283 = arith.extsi %282 : i8 to i32
    %284 = arith.muli %281, %283 : i32
    %285 = arith.addi %280, %284 : i32
    %286 = arith.addi %201, %97 : i32
    %287 = memref.load %2[%c2, %c9] : memref<16x16xi8>
    %288 = arith.extsi %287 : i8 to i32
    %289 = arith.muli %286, %288 : i32
    %290 = arith.addi %285, %289 : i32
    %291 = arith.addi %206, %105 : i32
    %292 = memref.load %2[%c2, %c10] : memref<16x16xi8>
    %293 = arith.extsi %292 : i8 to i32
    %294 = arith.muli %291, %293 : i32
    %295 = arith.addi %290, %294 : i32
    %296 = arith.addi %211, %113 : i32
    %297 = memref.load %2[%c2, %c11] : memref<16x16xi8>
    %298 = arith.extsi %297 : i8 to i32
    %299 = arith.muli %296, %298 : i32
    %300 = arith.addi %295, %299 : i32
    %301 = arith.addi %216, %121 : i32
    %302 = memref.load %2[%c2, %c12] : memref<16x16xi8>
    %303 = arith.extsi %302 : i8 to i32
    %304 = arith.muli %301, %303 : i32
    %305 = arith.addi %300, %304 : i32
    %306 = arith.addi %221, %129 : i32
    %307 = memref.load %2[%c2, %c13] : memref<16x16xi8>
    %308 = arith.extsi %307 : i8 to i32
    %309 = arith.muli %306, %308 : i32
    %310 = arith.addi %305, %309 : i32
    %311 = arith.addi %226, %137 : i32
    %312 = memref.load %2[%c2, %c14] : memref<16x16xi8>
    %313 = arith.extsi %312 : i8 to i32
    %314 = arith.muli %311, %313 : i32
    %315 = arith.addi %310, %314 : i32
    %316 = arith.addi %231, %145 : i32
    %317 = memref.load %2[%c2, %c15] : memref<16x16xi8>
    %318 = arith.extsi %317 : i8 to i32
    %319 = arith.muli %316, %318 : i32
    %320 = arith.addi %315, %319 : i32
    %321 = memref.load %4[%c0, %c2] : memref<1x16xi8>
    %322 = arith.extsi %321 : i8 to i32
    %323 = arith.muli %320, %322 : i32
    %324 = arith.addi %239, %323 : i32
    %325 = memref.load %3[%c3] : memref<16xi32>
    %326 = arith.addi %241, %25 : i32
    %327 = memref.load %2[%c3, %c0] : memref<16x16xi8>
    %328 = arith.extsi %327 : i8 to i32
    %329 = arith.muli %326, %328 : i32
    %330 = arith.addi %325, %329 : i32
    %331 = arith.addi %246, %33 : i32
    %332 = memref.load %2[%c3, %c1] : memref<16x16xi8>
    %333 = arith.extsi %332 : i8 to i32
    %334 = arith.muli %331, %333 : i32
    %335 = arith.addi %330, %334 : i32
    %336 = arith.addi %251, %41 : i32
    %337 = memref.load %2[%c3, %c2] : memref<16x16xi8>
    %338 = arith.extsi %337 : i8 to i32
    %339 = arith.muli %336, %338 : i32
    %340 = arith.addi %335, %339 : i32
    %341 = arith.addi %256, %49 : i32
    %342 = memref.load %2[%c3, %c3] : memref<16x16xi8>
    %343 = arith.extsi %342 : i8 to i32
    %344 = arith.muli %341, %343 : i32
    %345 = arith.addi %340, %344 : i32
    %346 = arith.addi %261, %57 : i32
    %347 = memref.load %2[%c3, %c4] : memref<16x16xi8>
    %348 = arith.extsi %347 : i8 to i32
    %349 = arith.muli %346, %348 : i32
    %350 = arith.addi %345, %349 : i32
    %351 = arith.addi %266, %65 : i32
    %352 = memref.load %2[%c3, %c5] : memref<16x16xi8>
    %353 = arith.extsi %352 : i8 to i32
    %354 = arith.muli %351, %353 : i32
    %355 = arith.addi %350, %354 : i32
    %356 = arith.addi %271, %73 : i32
    %357 = memref.load %2[%c3, %c6] : memref<16x16xi8>
    %358 = arith.extsi %357 : i8 to i32
    %359 = arith.muli %356, %358 : i32
    %360 = arith.addi %355, %359 : i32
    %361 = arith.addi %276, %81 : i32
    %362 = memref.load %2[%c3, %c7] : memref<16x16xi8>
    %363 = arith.extsi %362 : i8 to i32
    %364 = arith.muli %361, %363 : i32
    %365 = arith.addi %360, %364 : i32
    %366 = arith.addi %281, %89 : i32
    %367 = memref.load %2[%c3, %c8] : memref<16x16xi8>
    %368 = arith.extsi %367 : i8 to i32
    %369 = arith.muli %366, %368 : i32
    %370 = arith.addi %365, %369 : i32
    %371 = arith.addi %286, %97 : i32
    %372 = memref.load %2[%c3, %c9] : memref<16x16xi8>
    %373 = arith.extsi %372 : i8 to i32
    %374 = arith.muli %371, %373 : i32
    %375 = arith.addi %370, %374 : i32
    %376 = arith.addi %291, %105 : i32
    %377 = memref.load %2[%c3, %c10] : memref<16x16xi8>
    %378 = arith.extsi %377 : i8 to i32
    %379 = arith.muli %376, %378 : i32
    %380 = arith.addi %375, %379 : i32
    %381 = arith.addi %296, %113 : i32
    %382 = memref.load %2[%c3, %c11] : memref<16x16xi8>
    %383 = arith.extsi %382 : i8 to i32
    %384 = arith.muli %381, %383 : i32
    %385 = arith.addi %380, %384 : i32
    %386 = arith.addi %301, %121 : i32
    %387 = memref.load %2[%c3, %c12] : memref<16x16xi8>
    %388 = arith.extsi %387 : i8 to i32
    %389 = arith.muli %386, %388 : i32
    %390 = arith.addi %385, %389 : i32
    %391 = arith.addi %306, %129 : i32
    %392 = memref.load %2[%c3, %c13] : memref<16x16xi8>
    %393 = arith.extsi %392 : i8 to i32
    %394 = arith.muli %391, %393 : i32
    %395 = arith.addi %390, %394 : i32
    %396 = arith.addi %311, %137 : i32
    %397 = memref.load %2[%c3, %c14] : memref<16x16xi8>
    %398 = arith.extsi %397 : i8 to i32
    %399 = arith.muli %396, %398 : i32
    %400 = arith.addi %395, %399 : i32
    %401 = arith.addi %316, %145 : i32
    %402 = memref.load %2[%c3, %c15] : memref<16x16xi8>
    %403 = arith.extsi %402 : i8 to i32
    %404 = arith.muli %401, %403 : i32
    %405 = arith.addi %400, %404 : i32
    %406 = memref.load %4[%c0, %c3] : memref<1x16xi8>
    %407 = arith.extsi %406 : i8 to i32
    %408 = arith.muli %405, %407 : i32
    %409 = arith.addi %324, %408 : i32
    %410 = memref.load %3[%c4] : memref<16xi32>
    %411 = arith.addi %326, %25 : i32
    %412 = memref.load %2[%c4, %c0] : memref<16x16xi8>
    %413 = arith.extsi %412 : i8 to i32
    %414 = arith.muli %411, %413 : i32
    %415 = arith.addi %410, %414 : i32
    %416 = arith.addi %331, %33 : i32
    %417 = memref.load %2[%c4, %c1] : memref<16x16xi8>
    %418 = arith.extsi %417 : i8 to i32
    %419 = arith.muli %416, %418 : i32
    %420 = arith.addi %415, %419 : i32
    %421 = arith.addi %336, %41 : i32
    %422 = memref.load %2[%c4, %c2] : memref<16x16xi8>
    %423 = arith.extsi %422 : i8 to i32
    %424 = arith.muli %421, %423 : i32
    %425 = arith.addi %420, %424 : i32
    %426 = arith.addi %341, %49 : i32
    %427 = memref.load %2[%c4, %c3] : memref<16x16xi8>
    %428 = arith.extsi %427 : i8 to i32
    %429 = arith.muli %426, %428 : i32
    %430 = arith.addi %425, %429 : i32
    %431 = arith.addi %346, %57 : i32
    %432 = memref.load %2[%c4, %c4] : memref<16x16xi8>
    %433 = arith.extsi %432 : i8 to i32
    %434 = arith.muli %431, %433 : i32
    %435 = arith.addi %430, %434 : i32
    %436 = arith.addi %351, %65 : i32
    %437 = memref.load %2[%c4, %c5] : memref<16x16xi8>
    %438 = arith.extsi %437 : i8 to i32
    %439 = arith.muli %436, %438 : i32
    %440 = arith.addi %435, %439 : i32
    %441 = arith.addi %356, %73 : i32
    %442 = memref.load %2[%c4, %c6] : memref<16x16xi8>
    %443 = arith.extsi %442 : i8 to i32
    %444 = arith.muli %441, %443 : i32
    %445 = arith.addi %440, %444 : i32
    %446 = arith.addi %361, %81 : i32
    %447 = memref.load %2[%c4, %c7] : memref<16x16xi8>
    %448 = arith.extsi %447 : i8 to i32
    %449 = arith.muli %446, %448 : i32
    %450 = arith.addi %445, %449 : i32
    %451 = arith.addi %366, %89 : i32
    %452 = memref.load %2[%c4, %c8] : memref<16x16xi8>
    %453 = arith.extsi %452 : i8 to i32
    %454 = arith.muli %451, %453 : i32
    %455 = arith.addi %450, %454 : i32
    %456 = arith.addi %371, %97 : i32
    %457 = memref.load %2[%c4, %c9] : memref<16x16xi8>
    %458 = arith.extsi %457 : i8 to i32
    %459 = arith.muli %456, %458 : i32
    %460 = arith.addi %455, %459 : i32
    %461 = arith.addi %376, %105 : i32
    %462 = memref.load %2[%c4, %c10] : memref<16x16xi8>
    %463 = arith.extsi %462 : i8 to i32
    %464 = arith.muli %461, %463 : i32
    %465 = arith.addi %460, %464 : i32
    %466 = arith.addi %381, %113 : i32
    %467 = memref.load %2[%c4, %c11] : memref<16x16xi8>
    %468 = arith.extsi %467 : i8 to i32
    %469 = arith.muli %466, %468 : i32
    %470 = arith.addi %465, %469 : i32
    %471 = arith.addi %386, %121 : i32
    %472 = memref.load %2[%c4, %c12] : memref<16x16xi8>
    %473 = arith.extsi %472 : i8 to i32
    %474 = arith.muli %471, %473 : i32
    %475 = arith.addi %470, %474 : i32
    %476 = arith.addi %391, %129 : i32
    %477 = memref.load %2[%c4, %c13] : memref<16x16xi8>
    %478 = arith.extsi %477 : i8 to i32
    %479 = arith.muli %476, %478 : i32
    %480 = arith.addi %475, %479 : i32
    %481 = arith.addi %396, %137 : i32
    %482 = memref.load %2[%c4, %c14] : memref<16x16xi8>
    %483 = arith.extsi %482 : i8 to i32
    %484 = arith.muli %481, %483 : i32
    %485 = arith.addi %480, %484 : i32
    %486 = arith.addi %401, %145 : i32
    %487 = memref.load %2[%c4, %c15] : memref<16x16xi8>
    %488 = arith.extsi %487 : i8 to i32
    %489 = arith.muli %486, %488 : i32
    %490 = arith.addi %485, %489 : i32
    %491 = memref.load %4[%c0, %c4] : memref<1x16xi8>
    %492 = arith.extsi %491 : i8 to i32
    %493 = arith.muli %490, %492 : i32
    %494 = arith.addi %409, %493 : i32
    %495 = memref.load %3[%c5] : memref<16xi32>
    %496 = arith.addi %411, %25 : i32
    %497 = memref.load %2[%c5, %c0] : memref<16x16xi8>
    %498 = arith.extsi %497 : i8 to i32
    %499 = arith.muli %496, %498 : i32
    %500 = arith.addi %495, %499 : i32
    %501 = arith.addi %416, %33 : i32
    %502 = memref.load %2[%c5, %c1] : memref<16x16xi8>
    %503 = arith.extsi %502 : i8 to i32
    %504 = arith.muli %501, %503 : i32
    %505 = arith.addi %500, %504 : i32
    %506 = arith.addi %421, %41 : i32
    %507 = memref.load %2[%c5, %c2] : memref<16x16xi8>
    %508 = arith.extsi %507 : i8 to i32
    %509 = arith.muli %506, %508 : i32
    %510 = arith.addi %505, %509 : i32
    %511 = arith.addi %426, %49 : i32
    %512 = memref.load %2[%c5, %c3] : memref<16x16xi8>
    %513 = arith.extsi %512 : i8 to i32
    %514 = arith.muli %511, %513 : i32
    %515 = arith.addi %510, %514 : i32
    %516 = arith.addi %431, %57 : i32
    %517 = memref.load %2[%c5, %c4] : memref<16x16xi8>
    %518 = arith.extsi %517 : i8 to i32
    %519 = arith.muli %516, %518 : i32
    %520 = arith.addi %515, %519 : i32
    %521 = arith.addi %436, %65 : i32
    %522 = memref.load %2[%c5, %c5] : memref<16x16xi8>
    %523 = arith.extsi %522 : i8 to i32
    %524 = arith.muli %521, %523 : i32
    %525 = arith.addi %520, %524 : i32
    %526 = arith.addi %441, %73 : i32
    %527 = memref.load %2[%c5, %c6] : memref<16x16xi8>
    %528 = arith.extsi %527 : i8 to i32
    %529 = arith.muli %526, %528 : i32
    %530 = arith.addi %525, %529 : i32
    %531 = arith.addi %446, %81 : i32
    %532 = memref.load %2[%c5, %c7] : memref<16x16xi8>
    %533 = arith.extsi %532 : i8 to i32
    %534 = arith.muli %531, %533 : i32
    %535 = arith.addi %530, %534 : i32
    %536 = arith.addi %451, %89 : i32
    %537 = memref.load %2[%c5, %c8] : memref<16x16xi8>
    %538 = arith.extsi %537 : i8 to i32
    %539 = arith.muli %536, %538 : i32
    %540 = arith.addi %535, %539 : i32
    %541 = arith.addi %456, %97 : i32
    %542 = memref.load %2[%c5, %c9] : memref<16x16xi8>
    %543 = arith.extsi %542 : i8 to i32
    %544 = arith.muli %541, %543 : i32
    %545 = arith.addi %540, %544 : i32
    %546 = arith.addi %461, %105 : i32
    %547 = memref.load %2[%c5, %c10] : memref<16x16xi8>
    %548 = arith.extsi %547 : i8 to i32
    %549 = arith.muli %546, %548 : i32
    %550 = arith.addi %545, %549 : i32
    %551 = arith.addi %466, %113 : i32
    %552 = memref.load %2[%c5, %c11] : memref<16x16xi8>
    %553 = arith.extsi %552 : i8 to i32
    %554 = arith.muli %551, %553 : i32
    %555 = arith.addi %550, %554 : i32
    %556 = arith.addi %471, %121 : i32
    %557 = memref.load %2[%c5, %c12] : memref<16x16xi8>
    %558 = arith.extsi %557 : i8 to i32
    %559 = arith.muli %556, %558 : i32
    %560 = arith.addi %555, %559 : i32
    %561 = arith.addi %476, %129 : i32
    %562 = memref.load %2[%c5, %c13] : memref<16x16xi8>
    %563 = arith.extsi %562 : i8 to i32
    %564 = arith.muli %561, %563 : i32
    %565 = arith.addi %560, %564 : i32
    %566 = arith.addi %481, %137 : i32
    %567 = memref.load %2[%c5, %c14] : memref<16x16xi8>
    %568 = arith.extsi %567 : i8 to i32
    %569 = arith.muli %566, %568 : i32
    %570 = arith.addi %565, %569 : i32
    %571 = arith.addi %486, %145 : i32
    %572 = memref.load %2[%c5, %c15] : memref<16x16xi8>
    %573 = arith.extsi %572 : i8 to i32
    %574 = arith.muli %571, %573 : i32
    %575 = arith.addi %570, %574 : i32
    %576 = memref.load %4[%c0, %c5] : memref<1x16xi8>
    %577 = arith.extsi %576 : i8 to i32
    %578 = arith.muli %575, %577 : i32
    %579 = arith.addi %494, %578 : i32
    %580 = memref.load %3[%c6] : memref<16xi32>
    %581 = arith.addi %496, %25 : i32
    %582 = memref.load %2[%c6, %c0] : memref<16x16xi8>
    %583 = arith.extsi %582 : i8 to i32
    %584 = arith.muli %581, %583 : i32
    %585 = arith.addi %580, %584 : i32
    %586 = arith.addi %501, %33 : i32
    %587 = memref.load %2[%c6, %c1] : memref<16x16xi8>
    %588 = arith.extsi %587 : i8 to i32
    %589 = arith.muli %586, %588 : i32
    %590 = arith.addi %585, %589 : i32
    %591 = arith.addi %506, %41 : i32
    %592 = memref.load %2[%c6, %c2] : memref<16x16xi8>
    %593 = arith.extsi %592 : i8 to i32
    %594 = arith.muli %591, %593 : i32
    %595 = arith.addi %590, %594 : i32
    %596 = arith.addi %511, %49 : i32
    %597 = memref.load %2[%c6, %c3] : memref<16x16xi8>
    %598 = arith.extsi %597 : i8 to i32
    %599 = arith.muli %596, %598 : i32
    %600 = arith.addi %595, %599 : i32
    %601 = arith.addi %516, %57 : i32
    %602 = memref.load %2[%c6, %c4] : memref<16x16xi8>
    %603 = arith.extsi %602 : i8 to i32
    %604 = arith.muli %601, %603 : i32
    %605 = arith.addi %600, %604 : i32
    %606 = arith.addi %521, %65 : i32
    %607 = memref.load %2[%c6, %c5] : memref<16x16xi8>
    %608 = arith.extsi %607 : i8 to i32
    %609 = arith.muli %606, %608 : i32
    %610 = arith.addi %605, %609 : i32
    %611 = arith.addi %526, %73 : i32
    %612 = memref.load %2[%c6, %c6] : memref<16x16xi8>
    %613 = arith.extsi %612 : i8 to i32
    %614 = arith.muli %611, %613 : i32
    %615 = arith.addi %610, %614 : i32
    %616 = arith.addi %531, %81 : i32
    %617 = memref.load %2[%c6, %c7] : memref<16x16xi8>
    %618 = arith.extsi %617 : i8 to i32
    %619 = arith.muli %616, %618 : i32
    %620 = arith.addi %615, %619 : i32
    %621 = arith.addi %536, %89 : i32
    %622 = memref.load %2[%c6, %c8] : memref<16x16xi8>
    %623 = arith.extsi %622 : i8 to i32
    %624 = arith.muli %621, %623 : i32
    %625 = arith.addi %620, %624 : i32
    %626 = arith.addi %541, %97 : i32
    %627 = memref.load %2[%c6, %c9] : memref<16x16xi8>
    %628 = arith.extsi %627 : i8 to i32
    %629 = arith.muli %626, %628 : i32
    %630 = arith.addi %625, %629 : i32
    %631 = arith.addi %546, %105 : i32
    %632 = memref.load %2[%c6, %c10] : memref<16x16xi8>
    %633 = arith.extsi %632 : i8 to i32
    %634 = arith.muli %631, %633 : i32
    %635 = arith.addi %630, %634 : i32
    %636 = arith.addi %551, %113 : i32
    %637 = memref.load %2[%c6, %c11] : memref<16x16xi8>
    %638 = arith.extsi %637 : i8 to i32
    %639 = arith.muli %636, %638 : i32
    %640 = arith.addi %635, %639 : i32
    %641 = arith.addi %556, %121 : i32
    %642 = memref.load %2[%c6, %c12] : memref<16x16xi8>
    %643 = arith.extsi %642 : i8 to i32
    %644 = arith.muli %641, %643 : i32
    %645 = arith.addi %640, %644 : i32
    %646 = arith.addi %561, %129 : i32
    %647 = memref.load %2[%c6, %c13] : memref<16x16xi8>
    %648 = arith.extsi %647 : i8 to i32
    %649 = arith.muli %646, %648 : i32
    %650 = arith.addi %645, %649 : i32
    %651 = arith.addi %566, %137 : i32
    %652 = memref.load %2[%c6, %c14] : memref<16x16xi8>
    %653 = arith.extsi %652 : i8 to i32
    %654 = arith.muli %651, %653 : i32
    %655 = arith.addi %650, %654 : i32
    %656 = arith.addi %571, %145 : i32
    %657 = memref.load %2[%c6, %c15] : memref<16x16xi8>
    %658 = arith.extsi %657 : i8 to i32
    %659 = arith.muli %656, %658 : i32
    %660 = arith.addi %655, %659 : i32
    %661 = memref.load %4[%c0, %c6] : memref<1x16xi8>
    %662 = arith.extsi %661 : i8 to i32
    %663 = arith.muli %660, %662 : i32
    %664 = arith.addi %579, %663 : i32
    %665 = memref.load %3[%c7] : memref<16xi32>
    %666 = arith.addi %581, %25 : i32
    %667 = memref.load %2[%c7, %c0] : memref<16x16xi8>
    %668 = arith.extsi %667 : i8 to i32
    %669 = arith.muli %666, %668 : i32
    %670 = arith.addi %665, %669 : i32
    %671 = arith.addi %586, %33 : i32
    %672 = memref.load %2[%c7, %c1] : memref<16x16xi8>
    %673 = arith.extsi %672 : i8 to i32
    %674 = arith.muli %671, %673 : i32
    %675 = arith.addi %670, %674 : i32
    %676 = arith.addi %591, %41 : i32
    %677 = memref.load %2[%c7, %c2] : memref<16x16xi8>
    %678 = arith.extsi %677 : i8 to i32
    %679 = arith.muli %676, %678 : i32
    %680 = arith.addi %675, %679 : i32
    %681 = arith.addi %596, %49 : i32
    %682 = memref.load %2[%c7, %c3] : memref<16x16xi8>
    %683 = arith.extsi %682 : i8 to i32
    %684 = arith.muli %681, %683 : i32
    %685 = arith.addi %680, %684 : i32
    %686 = arith.addi %601, %57 : i32
    %687 = memref.load %2[%c7, %c4] : memref<16x16xi8>
    %688 = arith.extsi %687 : i8 to i32
    %689 = arith.muli %686, %688 : i32
    %690 = arith.addi %685, %689 : i32
    %691 = arith.addi %606, %65 : i32
    %692 = memref.load %2[%c7, %c5] : memref<16x16xi8>
    %693 = arith.extsi %692 : i8 to i32
    %694 = arith.muli %691, %693 : i32
    %695 = arith.addi %690, %694 : i32
    %696 = arith.addi %611, %73 : i32
    %697 = memref.load %2[%c7, %c6] : memref<16x16xi8>
    %698 = arith.extsi %697 : i8 to i32
    %699 = arith.muli %696, %698 : i32
    %700 = arith.addi %695, %699 : i32
    %701 = arith.addi %616, %81 : i32
    %702 = memref.load %2[%c7, %c7] : memref<16x16xi8>
    %703 = arith.extsi %702 : i8 to i32
    %704 = arith.muli %701, %703 : i32
    %705 = arith.addi %700, %704 : i32
    %706 = arith.addi %621, %89 : i32
    %707 = memref.load %2[%c7, %c8] : memref<16x16xi8>
    %708 = arith.extsi %707 : i8 to i32
    %709 = arith.muli %706, %708 : i32
    %710 = arith.addi %705, %709 : i32
    %711 = arith.addi %626, %97 : i32
    %712 = memref.load %2[%c7, %c9] : memref<16x16xi8>
    %713 = arith.extsi %712 : i8 to i32
    %714 = arith.muli %711, %713 : i32
    %715 = arith.addi %710, %714 : i32
    %716 = arith.addi %631, %105 : i32
    %717 = memref.load %2[%c7, %c10] : memref<16x16xi8>
    %718 = arith.extsi %717 : i8 to i32
    %719 = arith.muli %716, %718 : i32
    %720 = arith.addi %715, %719 : i32
    %721 = arith.addi %636, %113 : i32
    %722 = memref.load %2[%c7, %c11] : memref<16x16xi8>
    %723 = arith.extsi %722 : i8 to i32
    %724 = arith.muli %721, %723 : i32
    %725 = arith.addi %720, %724 : i32
    %726 = arith.addi %641, %121 : i32
    %727 = memref.load %2[%c7, %c12] : memref<16x16xi8>
    %728 = arith.extsi %727 : i8 to i32
    %729 = arith.muli %726, %728 : i32
    %730 = arith.addi %725, %729 : i32
    %731 = arith.addi %646, %129 : i32
    %732 = memref.load %2[%c7, %c13] : memref<16x16xi8>
    %733 = arith.extsi %732 : i8 to i32
    %734 = arith.muli %731, %733 : i32
    %735 = arith.addi %730, %734 : i32
    %736 = arith.addi %651, %137 : i32
    %737 = memref.load %2[%c7, %c14] : memref<16x16xi8>
    %738 = arith.extsi %737 : i8 to i32
    %739 = arith.muli %736, %738 : i32
    %740 = arith.addi %735, %739 : i32
    %741 = arith.addi %656, %145 : i32
    %742 = memref.load %2[%c7, %c15] : memref<16x16xi8>
    %743 = arith.extsi %742 : i8 to i32
    %744 = arith.muli %741, %743 : i32
    %745 = arith.addi %740, %744 : i32
    %746 = memref.load %4[%c0, %c7] : memref<1x16xi8>
    %747 = arith.extsi %746 : i8 to i32
    %748 = arith.muli %745, %747 : i32
    %749 = arith.addi %664, %748 : i32
    %750 = memref.load %3[%c8] : memref<16xi32>
    %751 = arith.addi %666, %25 : i32
    %752 = memref.load %2[%c8, %c0] : memref<16x16xi8>
    %753 = arith.extsi %752 : i8 to i32
    %754 = arith.muli %751, %753 : i32
    %755 = arith.addi %750, %754 : i32
    %756 = arith.addi %671, %33 : i32
    %757 = memref.load %2[%c8, %c1] : memref<16x16xi8>
    %758 = arith.extsi %757 : i8 to i32
    %759 = arith.muli %756, %758 : i32
    %760 = arith.addi %755, %759 : i32
    %761 = arith.addi %676, %41 : i32
    %762 = memref.load %2[%c8, %c2] : memref<16x16xi8>
    %763 = arith.extsi %762 : i8 to i32
    %764 = arith.muli %761, %763 : i32
    %765 = arith.addi %760, %764 : i32
    %766 = arith.addi %681, %49 : i32
    %767 = memref.load %2[%c8, %c3] : memref<16x16xi8>
    %768 = arith.extsi %767 : i8 to i32
    %769 = arith.muli %766, %768 : i32
    %770 = arith.addi %765, %769 : i32
    %771 = arith.addi %686, %57 : i32
    %772 = memref.load %2[%c8, %c4] : memref<16x16xi8>
    %773 = arith.extsi %772 : i8 to i32
    %774 = arith.muli %771, %773 : i32
    %775 = arith.addi %770, %774 : i32
    %776 = arith.addi %691, %65 : i32
    %777 = memref.load %2[%c8, %c5] : memref<16x16xi8>
    %778 = arith.extsi %777 : i8 to i32
    %779 = arith.muli %776, %778 : i32
    %780 = arith.addi %775, %779 : i32
    %781 = arith.addi %696, %73 : i32
    %782 = memref.load %2[%c8, %c6] : memref<16x16xi8>
    %783 = arith.extsi %782 : i8 to i32
    %784 = arith.muli %781, %783 : i32
    %785 = arith.addi %780, %784 : i32
    %786 = arith.addi %701, %81 : i32
    %787 = memref.load %2[%c8, %c7] : memref<16x16xi8>
    %788 = arith.extsi %787 : i8 to i32
    %789 = arith.muli %786, %788 : i32
    %790 = arith.addi %785, %789 : i32
    %791 = arith.addi %706, %89 : i32
    %792 = memref.load %2[%c8, %c8] : memref<16x16xi8>
    %793 = arith.extsi %792 : i8 to i32
    %794 = arith.muli %791, %793 : i32
    %795 = arith.addi %790, %794 : i32
    %796 = arith.addi %711, %97 : i32
    %797 = memref.load %2[%c8, %c9] : memref<16x16xi8>
    %798 = arith.extsi %797 : i8 to i32
    %799 = arith.muli %796, %798 : i32
    %800 = arith.addi %795, %799 : i32
    %801 = arith.addi %716, %105 : i32
    %802 = memref.load %2[%c8, %c10] : memref<16x16xi8>
    %803 = arith.extsi %802 : i8 to i32
    %804 = arith.muli %801, %803 : i32
    %805 = arith.addi %800, %804 : i32
    %806 = arith.addi %721, %113 : i32
    %807 = memref.load %2[%c8, %c11] : memref<16x16xi8>
    %808 = arith.extsi %807 : i8 to i32
    %809 = arith.muli %806, %808 : i32
    %810 = arith.addi %805, %809 : i32
    %811 = arith.addi %726, %121 : i32
    %812 = memref.load %2[%c8, %c12] : memref<16x16xi8>
    %813 = arith.extsi %812 : i8 to i32
    %814 = arith.muli %811, %813 : i32
    %815 = arith.addi %810, %814 : i32
    %816 = arith.addi %731, %129 : i32
    %817 = memref.load %2[%c8, %c13] : memref<16x16xi8>
    %818 = arith.extsi %817 : i8 to i32
    %819 = arith.muli %816, %818 : i32
    %820 = arith.addi %815, %819 : i32
    %821 = arith.addi %736, %137 : i32
    %822 = memref.load %2[%c8, %c14] : memref<16x16xi8>
    %823 = arith.extsi %822 : i8 to i32
    %824 = arith.muli %821, %823 : i32
    %825 = arith.addi %820, %824 : i32
    %826 = arith.addi %741, %145 : i32
    %827 = memref.load %2[%c8, %c15] : memref<16x16xi8>
    %828 = arith.extsi %827 : i8 to i32
    %829 = arith.muli %826, %828 : i32
    %830 = arith.addi %825, %829 : i32
    %831 = memref.load %4[%c0, %c8] : memref<1x16xi8>
    %832 = arith.extsi %831 : i8 to i32
    %833 = arith.muli %830, %832 : i32
    %834 = arith.addi %749, %833 : i32
    %835 = memref.load %3[%c9] : memref<16xi32>
    %836 = arith.addi %751, %25 : i32
    %837 = memref.load %2[%c9, %c0] : memref<16x16xi8>
    %838 = arith.extsi %837 : i8 to i32
    %839 = arith.muli %836, %838 : i32
    %840 = arith.addi %835, %839 : i32
    %841 = arith.addi %756, %33 : i32
    %842 = memref.load %2[%c9, %c1] : memref<16x16xi8>
    %843 = arith.extsi %842 : i8 to i32
    %844 = arith.muli %841, %843 : i32
    %845 = arith.addi %840, %844 : i32
    %846 = arith.addi %761, %41 : i32
    %847 = memref.load %2[%c9, %c2] : memref<16x16xi8>
    %848 = arith.extsi %847 : i8 to i32
    %849 = arith.muli %846, %848 : i32
    %850 = arith.addi %845, %849 : i32
    %851 = arith.addi %766, %49 : i32
    %852 = memref.load %2[%c9, %c3] : memref<16x16xi8>
    %853 = arith.extsi %852 : i8 to i32
    %854 = arith.muli %851, %853 : i32
    %855 = arith.addi %850, %854 : i32
    %856 = arith.addi %771, %57 : i32
    %857 = memref.load %2[%c9, %c4] : memref<16x16xi8>
    %858 = arith.extsi %857 : i8 to i32
    %859 = arith.muli %856, %858 : i32
    %860 = arith.addi %855, %859 : i32
    %861 = arith.addi %776, %65 : i32
    %862 = memref.load %2[%c9, %c5] : memref<16x16xi8>
    %863 = arith.extsi %862 : i8 to i32
    %864 = arith.muli %861, %863 : i32
    %865 = arith.addi %860, %864 : i32
    %866 = arith.addi %781, %73 : i32
    %867 = memref.load %2[%c9, %c6] : memref<16x16xi8>
    %868 = arith.extsi %867 : i8 to i32
    %869 = arith.muli %866, %868 : i32
    %870 = arith.addi %865, %869 : i32
    %871 = arith.addi %786, %81 : i32
    %872 = memref.load %2[%c9, %c7] : memref<16x16xi8>
    %873 = arith.extsi %872 : i8 to i32
    %874 = arith.muli %871, %873 : i32
    %875 = arith.addi %870, %874 : i32
    %876 = arith.addi %791, %89 : i32
    %877 = memref.load %2[%c9, %c8] : memref<16x16xi8>
    %878 = arith.extsi %877 : i8 to i32
    %879 = arith.muli %876, %878 : i32
    %880 = arith.addi %875, %879 : i32
    %881 = arith.addi %796, %97 : i32
    %882 = memref.load %2[%c9, %c9] : memref<16x16xi8>
    %883 = arith.extsi %882 : i8 to i32
    %884 = arith.muli %881, %883 : i32
    %885 = arith.addi %880, %884 : i32
    %886 = arith.addi %801, %105 : i32
    %887 = memref.load %2[%c9, %c10] : memref<16x16xi8>
    %888 = arith.extsi %887 : i8 to i32
    %889 = arith.muli %886, %888 : i32
    %890 = arith.addi %885, %889 : i32
    %891 = arith.addi %806, %113 : i32
    %892 = memref.load %2[%c9, %c11] : memref<16x16xi8>
    %893 = arith.extsi %892 : i8 to i32
    %894 = arith.muli %891, %893 : i32
    %895 = arith.addi %890, %894 : i32
    %896 = arith.addi %811, %121 : i32
    %897 = memref.load %2[%c9, %c12] : memref<16x16xi8>
    %898 = arith.extsi %897 : i8 to i32
    %899 = arith.muli %896, %898 : i32
    %900 = arith.addi %895, %899 : i32
    %901 = arith.addi %816, %129 : i32
    %902 = memref.load %2[%c9, %c13] : memref<16x16xi8>
    %903 = arith.extsi %902 : i8 to i32
    %904 = arith.muli %901, %903 : i32
    %905 = arith.addi %900, %904 : i32
    %906 = arith.addi %821, %137 : i32
    %907 = memref.load %2[%c9, %c14] : memref<16x16xi8>
    %908 = arith.extsi %907 : i8 to i32
    %909 = arith.muli %906, %908 : i32
    %910 = arith.addi %905, %909 : i32
    %911 = arith.addi %826, %145 : i32
    %912 = memref.load %2[%c9, %c15] : memref<16x16xi8>
    %913 = arith.extsi %912 : i8 to i32
    %914 = arith.muli %911, %913 : i32
    %915 = arith.addi %910, %914 : i32
    %916 = memref.load %4[%c0, %c9] : memref<1x16xi8>
    %917 = arith.extsi %916 : i8 to i32
    %918 = arith.muli %915, %917 : i32
    %919 = arith.addi %834, %918 : i32
    %920 = memref.load %3[%c10] : memref<16xi32>
    %921 = arith.addi %836, %25 : i32
    %922 = memref.load %2[%c10, %c0] : memref<16x16xi8>
    %923 = arith.extsi %922 : i8 to i32
    %924 = arith.muli %921, %923 : i32
    %925 = arith.addi %920, %924 : i32
    %926 = arith.addi %841, %33 : i32
    %927 = memref.load %2[%c10, %c1] : memref<16x16xi8>
    %928 = arith.extsi %927 : i8 to i32
    %929 = arith.muli %926, %928 : i32
    %930 = arith.addi %925, %929 : i32
    %931 = arith.addi %846, %41 : i32
    %932 = memref.load %2[%c10, %c2] : memref<16x16xi8>
    %933 = arith.extsi %932 : i8 to i32
    %934 = arith.muli %931, %933 : i32
    %935 = arith.addi %930, %934 : i32
    %936 = arith.addi %851, %49 : i32
    %937 = memref.load %2[%c10, %c3] : memref<16x16xi8>
    %938 = arith.extsi %937 : i8 to i32
    %939 = arith.muli %936, %938 : i32
    %940 = arith.addi %935, %939 : i32
    %941 = arith.addi %856, %57 : i32
    %942 = memref.load %2[%c10, %c4] : memref<16x16xi8>
    %943 = arith.extsi %942 : i8 to i32
    %944 = arith.muli %941, %943 : i32
    %945 = arith.addi %940, %944 : i32
    %946 = arith.addi %861, %65 : i32
    %947 = memref.load %2[%c10, %c5] : memref<16x16xi8>
    %948 = arith.extsi %947 : i8 to i32
    %949 = arith.muli %946, %948 : i32
    %950 = arith.addi %945, %949 : i32
    %951 = arith.addi %866, %73 : i32
    %952 = memref.load %2[%c10, %c6] : memref<16x16xi8>
    %953 = arith.extsi %952 : i8 to i32
    %954 = arith.muli %951, %953 : i32
    %955 = arith.addi %950, %954 : i32
    %956 = arith.addi %871, %81 : i32
    %957 = memref.load %2[%c10, %c7] : memref<16x16xi8>
    %958 = arith.extsi %957 : i8 to i32
    %959 = arith.muli %956, %958 : i32
    %960 = arith.addi %955, %959 : i32
    %961 = arith.addi %876, %89 : i32
    %962 = memref.load %2[%c10, %c8] : memref<16x16xi8>
    %963 = arith.extsi %962 : i8 to i32
    %964 = arith.muli %961, %963 : i32
    %965 = arith.addi %960, %964 : i32
    %966 = arith.addi %881, %97 : i32
    %967 = memref.load %2[%c10, %c9] : memref<16x16xi8>
    %968 = arith.extsi %967 : i8 to i32
    %969 = arith.muli %966, %968 : i32
    %970 = arith.addi %965, %969 : i32
    %971 = arith.addi %886, %105 : i32
    %972 = memref.load %2[%c10, %c10] : memref<16x16xi8>
    %973 = arith.extsi %972 : i8 to i32
    %974 = arith.muli %971, %973 : i32
    %975 = arith.addi %970, %974 : i32
    %976 = arith.addi %891, %113 : i32
    %977 = memref.load %2[%c10, %c11] : memref<16x16xi8>
    %978 = arith.extsi %977 : i8 to i32
    %979 = arith.muli %976, %978 : i32
    %980 = arith.addi %975, %979 : i32
    %981 = arith.addi %896, %121 : i32
    %982 = memref.load %2[%c10, %c12] : memref<16x16xi8>
    %983 = arith.extsi %982 : i8 to i32
    %984 = arith.muli %981, %983 : i32
    %985 = arith.addi %980, %984 : i32
    %986 = arith.addi %901, %129 : i32
    %987 = memref.load %2[%c10, %c13] : memref<16x16xi8>
    %988 = arith.extsi %987 : i8 to i32
    %989 = arith.muli %986, %988 : i32
    %990 = arith.addi %985, %989 : i32
    %991 = arith.addi %906, %137 : i32
    %992 = memref.load %2[%c10, %c14] : memref<16x16xi8>
    %993 = arith.extsi %992 : i8 to i32
    %994 = arith.muli %991, %993 : i32
    %995 = arith.addi %990, %994 : i32
    %996 = arith.addi %911, %145 : i32
    %997 = memref.load %2[%c10, %c15] : memref<16x16xi8>
    %998 = arith.extsi %997 : i8 to i32
    %999 = arith.muli %996, %998 : i32
    %1000 = arith.addi %995, %999 : i32
    %1001 = memref.load %4[%c0, %c10] : memref<1x16xi8>
    %1002 = arith.extsi %1001 : i8 to i32
    %1003 = arith.muli %1000, %1002 : i32
    %1004 = arith.addi %919, %1003 : i32
    %1005 = memref.load %3[%c11] : memref<16xi32>
    %1006 = arith.addi %921, %25 : i32
    %1007 = memref.load %2[%c11, %c0] : memref<16x16xi8>
    %1008 = arith.extsi %1007 : i8 to i32
    %1009 = arith.muli %1006, %1008 : i32
    %1010 = arith.addi %1005, %1009 : i32
    %1011 = arith.addi %926, %33 : i32
    %1012 = memref.load %2[%c11, %c1] : memref<16x16xi8>
    %1013 = arith.extsi %1012 : i8 to i32
    %1014 = arith.muli %1011, %1013 : i32
    %1015 = arith.addi %1010, %1014 : i32
    %1016 = arith.addi %931, %41 : i32
    %1017 = memref.load %2[%c11, %c2] : memref<16x16xi8>
    %1018 = arith.extsi %1017 : i8 to i32
    %1019 = arith.muli %1016, %1018 : i32
    %1020 = arith.addi %1015, %1019 : i32
    %1021 = arith.addi %936, %49 : i32
    %1022 = memref.load %2[%c11, %c3] : memref<16x16xi8>
    %1023 = arith.extsi %1022 : i8 to i32
    %1024 = arith.muli %1021, %1023 : i32
    %1025 = arith.addi %1020, %1024 : i32
    %1026 = arith.addi %941, %57 : i32
    %1027 = memref.load %2[%c11, %c4] : memref<16x16xi8>
    %1028 = arith.extsi %1027 : i8 to i32
    %1029 = arith.muli %1026, %1028 : i32
    %1030 = arith.addi %1025, %1029 : i32
    %1031 = arith.addi %946, %65 : i32
    %1032 = memref.load %2[%c11, %c5] : memref<16x16xi8>
    %1033 = arith.extsi %1032 : i8 to i32
    %1034 = arith.muli %1031, %1033 : i32
    %1035 = arith.addi %1030, %1034 : i32
    %1036 = arith.addi %951, %73 : i32
    %1037 = memref.load %2[%c11, %c6] : memref<16x16xi8>
    %1038 = arith.extsi %1037 : i8 to i32
    %1039 = arith.muli %1036, %1038 : i32
    %1040 = arith.addi %1035, %1039 : i32
    %1041 = arith.addi %956, %81 : i32
    %1042 = memref.load %2[%c11, %c7] : memref<16x16xi8>
    %1043 = arith.extsi %1042 : i8 to i32
    %1044 = arith.muli %1041, %1043 : i32
    %1045 = arith.addi %1040, %1044 : i32
    %1046 = arith.addi %961, %89 : i32
    %1047 = memref.load %2[%c11, %c8] : memref<16x16xi8>
    %1048 = arith.extsi %1047 : i8 to i32
    %1049 = arith.muli %1046, %1048 : i32
    %1050 = arith.addi %1045, %1049 : i32
    %1051 = arith.addi %966, %97 : i32
    %1052 = memref.load %2[%c11, %c9] : memref<16x16xi8>
    %1053 = arith.extsi %1052 : i8 to i32
    %1054 = arith.muli %1051, %1053 : i32
    %1055 = arith.addi %1050, %1054 : i32
    %1056 = arith.addi %971, %105 : i32
    %1057 = memref.load %2[%c11, %c10] : memref<16x16xi8>
    %1058 = arith.extsi %1057 : i8 to i32
    %1059 = arith.muli %1056, %1058 : i32
    %1060 = arith.addi %1055, %1059 : i32
    %1061 = arith.addi %976, %113 : i32
    %1062 = memref.load %2[%c11, %c11] : memref<16x16xi8>
    %1063 = arith.extsi %1062 : i8 to i32
    %1064 = arith.muli %1061, %1063 : i32
    %1065 = arith.addi %1060, %1064 : i32
    %1066 = arith.addi %981, %121 : i32
    %1067 = memref.load %2[%c11, %c12] : memref<16x16xi8>
    %1068 = arith.extsi %1067 : i8 to i32
    %1069 = arith.muli %1066, %1068 : i32
    %1070 = arith.addi %1065, %1069 : i32
    %1071 = arith.addi %986, %129 : i32
    %1072 = memref.load %2[%c11, %c13] : memref<16x16xi8>
    %1073 = arith.extsi %1072 : i8 to i32
    %1074 = arith.muli %1071, %1073 : i32
    %1075 = arith.addi %1070, %1074 : i32
    %1076 = arith.addi %991, %137 : i32
    %1077 = memref.load %2[%c11, %c14] : memref<16x16xi8>
    %1078 = arith.extsi %1077 : i8 to i32
    %1079 = arith.muli %1076, %1078 : i32
    %1080 = arith.addi %1075, %1079 : i32
    %1081 = arith.addi %996, %145 : i32
    %1082 = memref.load %2[%c11, %c15] : memref<16x16xi8>
    %1083 = arith.extsi %1082 : i8 to i32
    %1084 = arith.muli %1081, %1083 : i32
    %1085 = arith.addi %1080, %1084 : i32
    %1086 = memref.load %4[%c0, %c11] : memref<1x16xi8>
    %1087 = arith.extsi %1086 : i8 to i32
    %1088 = arith.muli %1085, %1087 : i32
    %1089 = arith.addi %1004, %1088 : i32
    %1090 = memref.load %3[%c12] : memref<16xi32>
    %1091 = arith.addi %1006, %25 : i32
    %1092 = memref.load %2[%c12, %c0] : memref<16x16xi8>
    %1093 = arith.extsi %1092 : i8 to i32
    %1094 = arith.muli %1091, %1093 : i32
    %1095 = arith.addi %1090, %1094 : i32
    %1096 = arith.addi %1011, %33 : i32
    %1097 = memref.load %2[%c12, %c1] : memref<16x16xi8>
    %1098 = arith.extsi %1097 : i8 to i32
    %1099 = arith.muli %1096, %1098 : i32
    %1100 = arith.addi %1095, %1099 : i32
    %1101 = arith.addi %1016, %41 : i32
    %1102 = memref.load %2[%c12, %c2] : memref<16x16xi8>
    %1103 = arith.extsi %1102 : i8 to i32
    %1104 = arith.muli %1101, %1103 : i32
    %1105 = arith.addi %1100, %1104 : i32
    %1106 = arith.addi %1021, %49 : i32
    %1107 = memref.load %2[%c12, %c3] : memref<16x16xi8>
    %1108 = arith.extsi %1107 : i8 to i32
    %1109 = arith.muli %1106, %1108 : i32
    %1110 = arith.addi %1105, %1109 : i32
    %1111 = arith.addi %1026, %57 : i32
    %1112 = memref.load %2[%c12, %c4] : memref<16x16xi8>
    %1113 = arith.extsi %1112 : i8 to i32
    %1114 = arith.muli %1111, %1113 : i32
    %1115 = arith.addi %1110, %1114 : i32
    %1116 = arith.addi %1031, %65 : i32
    %1117 = memref.load %2[%c12, %c5] : memref<16x16xi8>
    %1118 = arith.extsi %1117 : i8 to i32
    %1119 = arith.muli %1116, %1118 : i32
    %1120 = arith.addi %1115, %1119 : i32
    %1121 = arith.addi %1036, %73 : i32
    %1122 = memref.load %2[%c12, %c6] : memref<16x16xi8>
    %1123 = arith.extsi %1122 : i8 to i32
    %1124 = arith.muli %1121, %1123 : i32
    %1125 = arith.addi %1120, %1124 : i32
    %1126 = arith.addi %1041, %81 : i32
    %1127 = memref.load %2[%c12, %c7] : memref<16x16xi8>
    %1128 = arith.extsi %1127 : i8 to i32
    %1129 = arith.muli %1126, %1128 : i32
    %1130 = arith.addi %1125, %1129 : i32
    %1131 = arith.addi %1046, %89 : i32
    %1132 = memref.load %2[%c12, %c8] : memref<16x16xi8>
    %1133 = arith.extsi %1132 : i8 to i32
    %1134 = arith.muli %1131, %1133 : i32
    %1135 = arith.addi %1130, %1134 : i32
    %1136 = arith.addi %1051, %97 : i32
    %1137 = memref.load %2[%c12, %c9] : memref<16x16xi8>
    %1138 = arith.extsi %1137 : i8 to i32
    %1139 = arith.muli %1136, %1138 : i32
    %1140 = arith.addi %1135, %1139 : i32
    %1141 = arith.addi %1056, %105 : i32
    %1142 = memref.load %2[%c12, %c10] : memref<16x16xi8>
    %1143 = arith.extsi %1142 : i8 to i32
    %1144 = arith.muli %1141, %1143 : i32
    %1145 = arith.addi %1140, %1144 : i32
    %1146 = arith.addi %1061, %113 : i32
    %1147 = memref.load %2[%c12, %c11] : memref<16x16xi8>
    %1148 = arith.extsi %1147 : i8 to i32
    %1149 = arith.muli %1146, %1148 : i32
    %1150 = arith.addi %1145, %1149 : i32
    %1151 = arith.addi %1066, %121 : i32
    %1152 = memref.load %2[%c12, %c12] : memref<16x16xi8>
    %1153 = arith.extsi %1152 : i8 to i32
    %1154 = arith.muli %1151, %1153 : i32
    %1155 = arith.addi %1150, %1154 : i32
    %1156 = arith.addi %1071, %129 : i32
    %1157 = memref.load %2[%c12, %c13] : memref<16x16xi8>
    %1158 = arith.extsi %1157 : i8 to i32
    %1159 = arith.muli %1156, %1158 : i32
    %1160 = arith.addi %1155, %1159 : i32
    %1161 = arith.addi %1076, %137 : i32
    %1162 = memref.load %2[%c12, %c14] : memref<16x16xi8>
    %1163 = arith.extsi %1162 : i8 to i32
    %1164 = arith.muli %1161, %1163 : i32
    %1165 = arith.addi %1160, %1164 : i32
    %1166 = arith.addi %1081, %145 : i32
    %1167 = memref.load %2[%c12, %c15] : memref<16x16xi8>
    %1168 = arith.extsi %1167 : i8 to i32
    %1169 = arith.muli %1166, %1168 : i32
    %1170 = arith.addi %1165, %1169 : i32
    %1171 = memref.load %4[%c0, %c12] : memref<1x16xi8>
    %1172 = arith.extsi %1171 : i8 to i32
    %1173 = arith.muli %1170, %1172 : i32
    %1174 = arith.addi %1089, %1173 : i32
    %1175 = memref.load %3[%c13] : memref<16xi32>
    %1176 = arith.addi %1091, %25 : i32
    %1177 = memref.load %2[%c13, %c0] : memref<16x16xi8>
    %1178 = arith.extsi %1177 : i8 to i32
    %1179 = arith.muli %1176, %1178 : i32
    %1180 = arith.addi %1175, %1179 : i32
    %1181 = arith.addi %1096, %33 : i32
    %1182 = memref.load %2[%c13, %c1] : memref<16x16xi8>
    %1183 = arith.extsi %1182 : i8 to i32
    %1184 = arith.muli %1181, %1183 : i32
    %1185 = arith.addi %1180, %1184 : i32
    %1186 = arith.addi %1101, %41 : i32
    %1187 = memref.load %2[%c13, %c2] : memref<16x16xi8>
    %1188 = arith.extsi %1187 : i8 to i32
    %1189 = arith.muli %1186, %1188 : i32
    %1190 = arith.addi %1185, %1189 : i32
    %1191 = arith.addi %1106, %49 : i32
    %1192 = memref.load %2[%c13, %c3] : memref<16x16xi8>
    %1193 = arith.extsi %1192 : i8 to i32
    %1194 = arith.muli %1191, %1193 : i32
    %1195 = arith.addi %1190, %1194 : i32
    %1196 = arith.addi %1111, %57 : i32
    %1197 = memref.load %2[%c13, %c4] : memref<16x16xi8>
    %1198 = arith.extsi %1197 : i8 to i32
    %1199 = arith.muli %1196, %1198 : i32
    %1200 = arith.addi %1195, %1199 : i32
    %1201 = arith.addi %1116, %65 : i32
    %1202 = memref.load %2[%c13, %c5] : memref<16x16xi8>
    %1203 = arith.extsi %1202 : i8 to i32
    %1204 = arith.muli %1201, %1203 : i32
    %1205 = arith.addi %1200, %1204 : i32
    %1206 = arith.addi %1121, %73 : i32
    %1207 = memref.load %2[%c13, %c6] : memref<16x16xi8>
    %1208 = arith.extsi %1207 : i8 to i32
    %1209 = arith.muli %1206, %1208 : i32
    %1210 = arith.addi %1205, %1209 : i32
    %1211 = arith.addi %1126, %81 : i32
    %1212 = memref.load %2[%c13, %c7] : memref<16x16xi8>
    %1213 = arith.extsi %1212 : i8 to i32
    %1214 = arith.muli %1211, %1213 : i32
    %1215 = arith.addi %1210, %1214 : i32
    %1216 = arith.addi %1131, %89 : i32
    %1217 = memref.load %2[%c13, %c8] : memref<16x16xi8>
    %1218 = arith.extsi %1217 : i8 to i32
    %1219 = arith.muli %1216, %1218 : i32
    %1220 = arith.addi %1215, %1219 : i32
    %1221 = arith.addi %1136, %97 : i32
    %1222 = memref.load %2[%c13, %c9] : memref<16x16xi8>
    %1223 = arith.extsi %1222 : i8 to i32
    %1224 = arith.muli %1221, %1223 : i32
    %1225 = arith.addi %1220, %1224 : i32
    %1226 = arith.addi %1141, %105 : i32
    %1227 = memref.load %2[%c13, %c10] : memref<16x16xi8>
    %1228 = arith.extsi %1227 : i8 to i32
    %1229 = arith.muli %1226, %1228 : i32
    %1230 = arith.addi %1225, %1229 : i32
    %1231 = arith.addi %1146, %113 : i32
    %1232 = memref.load %2[%c13, %c11] : memref<16x16xi8>
    %1233 = arith.extsi %1232 : i8 to i32
    %1234 = arith.muli %1231, %1233 : i32
    %1235 = arith.addi %1230, %1234 : i32
    %1236 = arith.addi %1151, %121 : i32
    %1237 = memref.load %2[%c13, %c12] : memref<16x16xi8>
    %1238 = arith.extsi %1237 : i8 to i32
    %1239 = arith.muli %1236, %1238 : i32
    %1240 = arith.addi %1235, %1239 : i32
    %1241 = arith.addi %1156, %129 : i32
    %1242 = memref.load %2[%c13, %c13] : memref<16x16xi8>
    %1243 = arith.extsi %1242 : i8 to i32
    %1244 = arith.muli %1241, %1243 : i32
    %1245 = arith.addi %1240, %1244 : i32
    %1246 = arith.addi %1161, %137 : i32
    %1247 = memref.load %2[%c13, %c14] : memref<16x16xi8>
    %1248 = arith.extsi %1247 : i8 to i32
    %1249 = arith.muli %1246, %1248 : i32
    %1250 = arith.addi %1245, %1249 : i32
    %1251 = arith.addi %1166, %145 : i32
    %1252 = memref.load %2[%c13, %c15] : memref<16x16xi8>
    %1253 = arith.extsi %1252 : i8 to i32
    %1254 = arith.muli %1251, %1253 : i32
    %1255 = arith.addi %1250, %1254 : i32
    %1256 = memref.load %4[%c0, %c13] : memref<1x16xi8>
    %1257 = arith.extsi %1256 : i8 to i32
    %1258 = arith.muli %1255, %1257 : i32
    %1259 = arith.addi %1174, %1258 : i32
    %1260 = memref.load %3[%c14] : memref<16xi32>
    %1261 = arith.addi %1176, %25 : i32
    %1262 = memref.load %2[%c14, %c0] : memref<16x16xi8>
    %1263 = arith.extsi %1262 : i8 to i32
    %1264 = arith.muli %1261, %1263 : i32
    %1265 = arith.addi %1260, %1264 : i32
    %1266 = arith.addi %1181, %33 : i32
    %1267 = memref.load %2[%c14, %c1] : memref<16x16xi8>
    %1268 = arith.extsi %1267 : i8 to i32
    %1269 = arith.muli %1266, %1268 : i32
    %1270 = arith.addi %1265, %1269 : i32
    %1271 = arith.addi %1186, %41 : i32
    %1272 = memref.load %2[%c14, %c2] : memref<16x16xi8>
    %1273 = arith.extsi %1272 : i8 to i32
    %1274 = arith.muli %1271, %1273 : i32
    %1275 = arith.addi %1270, %1274 : i32
    %1276 = arith.addi %1191, %49 : i32
    %1277 = memref.load %2[%c14, %c3] : memref<16x16xi8>
    %1278 = arith.extsi %1277 : i8 to i32
    %1279 = arith.muli %1276, %1278 : i32
    %1280 = arith.addi %1275, %1279 : i32
    %1281 = arith.addi %1196, %57 : i32
    %1282 = memref.load %2[%c14, %c4] : memref<16x16xi8>
    %1283 = arith.extsi %1282 : i8 to i32
    %1284 = arith.muli %1281, %1283 : i32
    %1285 = arith.addi %1280, %1284 : i32
    %1286 = arith.addi %1201, %65 : i32
    %1287 = memref.load %2[%c14, %c5] : memref<16x16xi8>
    %1288 = arith.extsi %1287 : i8 to i32
    %1289 = arith.muli %1286, %1288 : i32
    %1290 = arith.addi %1285, %1289 : i32
    %1291 = arith.addi %1206, %73 : i32
    %1292 = memref.load %2[%c14, %c6] : memref<16x16xi8>
    %1293 = arith.extsi %1292 : i8 to i32
    %1294 = arith.muli %1291, %1293 : i32
    %1295 = arith.addi %1290, %1294 : i32
    %1296 = arith.addi %1211, %81 : i32
    %1297 = memref.load %2[%c14, %c7] : memref<16x16xi8>
    %1298 = arith.extsi %1297 : i8 to i32
    %1299 = arith.muli %1296, %1298 : i32
    %1300 = arith.addi %1295, %1299 : i32
    %1301 = arith.addi %1216, %89 : i32
    %1302 = memref.load %2[%c14, %c8] : memref<16x16xi8>
    %1303 = arith.extsi %1302 : i8 to i32
    %1304 = arith.muli %1301, %1303 : i32
    %1305 = arith.addi %1300, %1304 : i32
    %1306 = arith.addi %1221, %97 : i32
    %1307 = memref.load %2[%c14, %c9] : memref<16x16xi8>
    %1308 = arith.extsi %1307 : i8 to i32
    %1309 = arith.muli %1306, %1308 : i32
    %1310 = arith.addi %1305, %1309 : i32
    %1311 = arith.addi %1226, %105 : i32
    %1312 = memref.load %2[%c14, %c10] : memref<16x16xi8>
    %1313 = arith.extsi %1312 : i8 to i32
    %1314 = arith.muli %1311, %1313 : i32
    %1315 = arith.addi %1310, %1314 : i32
    %1316 = arith.addi %1231, %113 : i32
    %1317 = memref.load %2[%c14, %c11] : memref<16x16xi8>
    %1318 = arith.extsi %1317 : i8 to i32
    %1319 = arith.muli %1316, %1318 : i32
    %1320 = arith.addi %1315, %1319 : i32
    %1321 = arith.addi %1236, %121 : i32
    %1322 = memref.load %2[%c14, %c12] : memref<16x16xi8>
    %1323 = arith.extsi %1322 : i8 to i32
    %1324 = arith.muli %1321, %1323 : i32
    %1325 = arith.addi %1320, %1324 : i32
    %1326 = arith.addi %1241, %129 : i32
    %1327 = memref.load %2[%c14, %c13] : memref<16x16xi8>
    %1328 = arith.extsi %1327 : i8 to i32
    %1329 = arith.muli %1326, %1328 : i32
    %1330 = arith.addi %1325, %1329 : i32
    %1331 = arith.addi %1246, %137 : i32
    %1332 = memref.load %2[%c14, %c14] : memref<16x16xi8>
    %1333 = arith.extsi %1332 : i8 to i32
    %1334 = arith.muli %1331, %1333 : i32
    %1335 = arith.addi %1330, %1334 : i32
    %1336 = arith.addi %1251, %145 : i32
    %1337 = memref.load %2[%c14, %c15] : memref<16x16xi8>
    %1338 = arith.extsi %1337 : i8 to i32
    %1339 = arith.muli %1336, %1338 : i32
    %1340 = arith.addi %1335, %1339 : i32
    %1341 = memref.load %4[%c0, %c14] : memref<1x16xi8>
    %1342 = arith.extsi %1341 : i8 to i32
    %1343 = arith.muli %1340, %1342 : i32
    %1344 = arith.addi %1259, %1343 : i32
    %1345 = memref.load %3[%c15] : memref<16xi32>
    %1346 = arith.addi %1261, %25 : i32
    %1347 = memref.load %2[%c15, %c0] : memref<16x16xi8>
    %1348 = arith.extsi %1347 : i8 to i32
    %1349 = arith.muli %1346, %1348 : i32
    %1350 = arith.addi %1345, %1349 : i32
    %1351 = arith.addi %1266, %33 : i32
    %1352 = memref.load %2[%c15, %c1] : memref<16x16xi8>
    %1353 = arith.extsi %1352 : i8 to i32
    %1354 = arith.muli %1351, %1353 : i32
    %1355 = arith.addi %1350, %1354 : i32
    %1356 = arith.addi %1271, %41 : i32
    %1357 = memref.load %2[%c15, %c2] : memref<16x16xi8>
    %1358 = arith.extsi %1357 : i8 to i32
    %1359 = arith.muli %1356, %1358 : i32
    %1360 = arith.addi %1355, %1359 : i32
    %1361 = arith.addi %1276, %49 : i32
    %1362 = memref.load %2[%c15, %c3] : memref<16x16xi8>
    %1363 = arith.extsi %1362 : i8 to i32
    %1364 = arith.muli %1361, %1363 : i32
    %1365 = arith.addi %1360, %1364 : i32
    %1366 = arith.addi %1281, %57 : i32
    %1367 = memref.load %2[%c15, %c4] : memref<16x16xi8>
    %1368 = arith.extsi %1367 : i8 to i32
    %1369 = arith.muli %1366, %1368 : i32
    %1370 = arith.addi %1365, %1369 : i32
    %1371 = arith.addi %1286, %65 : i32
    %1372 = memref.load %2[%c15, %c5] : memref<16x16xi8>
    %1373 = arith.extsi %1372 : i8 to i32
    %1374 = arith.muli %1371, %1373 : i32
    %1375 = arith.addi %1370, %1374 : i32
    %1376 = arith.addi %1291, %73 : i32
    %1377 = memref.load %2[%c15, %c6] : memref<16x16xi8>
    %1378 = arith.extsi %1377 : i8 to i32
    %1379 = arith.muli %1376, %1378 : i32
    %1380 = arith.addi %1375, %1379 : i32
    %1381 = arith.addi %1296, %81 : i32
    %1382 = memref.load %2[%c15, %c7] : memref<16x16xi8>
    %1383 = arith.extsi %1382 : i8 to i32
    %1384 = arith.muli %1381, %1383 : i32
    %1385 = arith.addi %1380, %1384 : i32
    %1386 = arith.addi %1301, %89 : i32
    %1387 = memref.load %2[%c15, %c8] : memref<16x16xi8>
    %1388 = arith.extsi %1387 : i8 to i32
    %1389 = arith.muli %1386, %1388 : i32
    %1390 = arith.addi %1385, %1389 : i32
    %1391 = arith.addi %1306, %97 : i32
    %1392 = memref.load %2[%c15, %c9] : memref<16x16xi8>
    %1393 = arith.extsi %1392 : i8 to i32
    %1394 = arith.muli %1391, %1393 : i32
    %1395 = arith.addi %1390, %1394 : i32
    %1396 = arith.addi %1311, %105 : i32
    %1397 = memref.load %2[%c15, %c10] : memref<16x16xi8>
    %1398 = arith.extsi %1397 : i8 to i32
    %1399 = arith.muli %1396, %1398 : i32
    %1400 = arith.addi %1395, %1399 : i32
    %1401 = arith.addi %1316, %113 : i32
    %1402 = memref.load %2[%c15, %c11] : memref<16x16xi8>
    %1403 = arith.extsi %1402 : i8 to i32
    %1404 = arith.muli %1401, %1403 : i32
    %1405 = arith.addi %1400, %1404 : i32
    %1406 = arith.addi %1321, %121 : i32
    %1407 = memref.load %2[%c15, %c12] : memref<16x16xi8>
    %1408 = arith.extsi %1407 : i8 to i32
    %1409 = arith.muli %1406, %1408 : i32
    %1410 = arith.addi %1405, %1409 : i32
    %1411 = arith.addi %1326, %129 : i32
    %1412 = memref.load %2[%c15, %c13] : memref<16x16xi8>
    %1413 = arith.extsi %1412 : i8 to i32
    %1414 = arith.muli %1411, %1413 : i32
    %1415 = arith.addi %1410, %1414 : i32
    %1416 = arith.addi %1331, %137 : i32
    %1417 = memref.load %2[%c15, %c14] : memref<16x16xi8>
    %1418 = arith.extsi %1417 : i8 to i32
    %1419 = arith.muli %1416, %1418 : i32
    %1420 = arith.addi %1415, %1419 : i32
    %1421 = arith.addi %1336, %145 : i32
    %1422 = memref.load %2[%c15, %c15] : memref<16x16xi8>
    %1423 = arith.extsi %1422 : i8 to i32
    %1424 = arith.muli %1421, %1423 : i32
    %1425 = arith.addi %1420, %1424 : i32
    %1426 = memref.load %4[%c0, %c15] : memref<1x16xi8>
    %1427 = arith.extsi %1426 : i8 to i32
    %1428 = arith.muli %1425, %1427 : i32
    %1429 = arith.addi %1344, %1428 : i32
    memref.store %1429, %alloc[%c0, %c0] : memref<1x1xi32>
    return %alloc : memref<1x1xi32>
  }
}
