module attributes {tf_saved_model.semantics} {
  func.func @main(%arg0: memref<1x1xi32, strided<[?, ?], offset: ?>> {iree.identifier = "serving_default_dense_input:0", tf_saved_model.index_path = ["dense_input"]}) -> (memref<1x1xi32> {iree.identifier = "StatefulPartitionedCall:0", tf_saved_model.index_path = ["dense_2"]}) attributes {tf_saved_model.exported_names = ["serving_default"]} {
    %c429_i32 = arith.constant 429 : i32
    %c-9_i8 = arith.constant -9 : i8
    %c-54_i8 = arith.constant -54 : i8
    %c57_i8 = arith.constant 57 : i8
    %c71_i8 = arith.constant 71 : i8
    %c104_i8 = arith.constant 104 : i8
    %c115_i8 = arith.constant 115 : i8
    %c98_i8 = arith.constant 98 : i8
    %c99_i8 = arith.constant 99 : i8
    %c64_i8 = arith.constant 64 : i8
    %c-26_i8 = arith.constant -26 : i8
    %c127_i8 = arith.constant 127 : i8
    %c25_i8 = arith.constant 25 : i8
    %c-82_i8 = arith.constant -82 : i8
    %c68_i8 = arith.constant 68 : i8
    %c95_i8 = arith.constant 95 : i8
    %c86_i8 = arith.constant 86 : i8
    %c0_i32 = arith.constant 0 : i32
    %c-5438_i32 = arith.constant -5438 : i32
    %c-5515_i32 = arith.constant -5515 : i32
    %c-1352_i32 = arith.constant -1352 : i32
    %c-1500_i32 = arith.constant -1500 : i32
    %c-4152_i32 = arith.constant -4152 : i32
    %c-84_i32 = arith.constant -84 : i32
    %c3396_i32 = arith.constant 3396 : i32
    %c1981_i32 = arith.constant 1981 : i32
    %c-5581_i32 = arith.constant -5581 : i32
    %c-6964_i32 = arith.constant -6964 : i32
    %c3407_i32 = arith.constant 3407 : i32
    %c-7217_i32 = arith.constant -7217 : i32
    %c-12_i8 = arith.constant -12 : i8
    %c3_i8 = arith.constant 3 : i8
    %c-5_i8 = arith.constant -5 : i8
    %c16_i8 = arith.constant 16 : i8
    %c-28_i8 = arith.constant -28 : i8
    %c35_i8 = arith.constant 35 : i8
    %c17_i8 = arith.constant 17 : i8
    %c-35_i8 = arith.constant -35 : i8
    %c37_i8 = arith.constant 37 : i8
    %c-17_i8 = arith.constant -17 : i8
    %c-22_i8 = arith.constant -22 : i8
    %c-30_i8 = arith.constant -30 : i8
    %c-37_i8 = arith.constant -37 : i8
    %c-23_i8 = arith.constant -23 : i8
    %c8_i8 = arith.constant 8 : i8
    %c26_i8 = arith.constant 26 : i8
    %c-36_i8 = arith.constant -36 : i8
    %c39_i8 = arith.constant 39 : i8
    %c-2_i8 = arith.constant -2 : i8
    %c21_i8 = arith.constant 21 : i8
    %c10_i8 = arith.constant 10 : i8
    %c12_i8 = arith.constant 12 : i8
    %c33_i8 = arith.constant 33 : i8
    %c28_i8 = arith.constant 28 : i8
    %c31_i8 = arith.constant 31 : i8
    %c-25_i8 = arith.constant -25 : i8
    %c30_i8 = arith.constant 30 : i8
    %c36_i8 = arith.constant 36 : i8
    %c34_i8 = arith.constant 34 : i8
    %c-19_i8 = arith.constant -19 : i8
    %c-46_i8 = arith.constant -46 : i8
    %c20_i8 = arith.constant 20 : i8
    %c7_i8 = arith.constant 7 : i8
    %c-11_i8 = arith.constant -11 : i8
    %c-3_i8 = arith.constant -3 : i8
    %c29_i8 = arith.constant 29 : i8
    %c-4_i8 = arith.constant -4 : i8
    %c38_i8 = arith.constant 38 : i8
    %c9_i8 = arith.constant 9 : i8
    %c2_i8 = arith.constant 2 : i8
    %c-21_i8 = arith.constant -21 : i8
    %c-38_i8 = arith.constant -38 : i8
    %c11_i8 = arith.constant 11 : i8
    %c-32_i8 = arith.constant -32 : i8
    %c0_i8 = arith.constant 0 : i8
    %c-40_i8 = arith.constant -40 : i8
    %c-41_i8 = arith.constant -41 : i8
    %c41_i8 = arith.constant 41 : i8
    %c6_i8 = arith.constant 6 : i8
    %c4_i8 = arith.constant 4 : i8
    %c-13_i8 = arith.constant -13 : i8
    %c19_i8 = arith.constant 19 : i8
    %c-7_i8 = arith.constant -7 : i8
    %c-8_i8 = arith.constant -8 : i8
    %c27_i8 = arith.constant 27 : i8
    %c22_i8 = arith.constant 22 : i8
    %c5_i8 = arith.constant 5 : i8
    %c23_i8 = arith.constant 23 : i8
    %c-60_i8 = arith.constant -60 : i8
    %c-42_i8 = arith.constant -42 : i8
    %c15_i8 = arith.constant 15 : i8
    %c-15_i8 = arith.constant -15 : i8
    %c-27_i8 = arith.constant -27 : i8
    %c32_i8 = arith.constant 32 : i8
    %c-58_i8 = arith.constant -58 : i8
    %c-1_i8 = arith.constant -1 : i8
    %c-24_i8 = arith.constant -24 : i8
    %c1_i8 = arith.constant 1 : i8
    %c-20_i8 = arith.constant -20 : i8
    %c-6_i8 = arith.constant -6 : i8
    %c24_i8 = arith.constant 24 : i8
    %c-39_i8 = arith.constant -39 : i8
    %c13_i8 = arith.constant 13 : i8
    %c18_i8 = arith.constant 18 : i8
    %c-34_i8 = arith.constant -34 : i8
    %c-29_i8 = arith.constant -29 : i8
    %c-68_i8 = arith.constant -68 : i8
    %c-64_i8 = arith.constant -64 : i8
    %c55_i8 = arith.constant 55 : i8
    %c46_i8 = arith.constant 46 : i8
    %c62_i8 = arith.constant 62 : i8
    %c-45_i8 = arith.constant -45 : i8
    %c88_i8 = arith.constant 88 : i8
    %c-31_i8 = arith.constant -31 : i8
    %c-57_i8 = arith.constant -57 : i8
    %c-18_i8 = arith.constant -18 : i8
    %c-729_i32 = arith.constant -729 : i32
    %c1954_i32 = arith.constant 1954 : i32
    %c610_i32 = arith.constant 610 : i32
    %c241_i32 = arith.constant 241 : i32
    %c-471_i32 = arith.constant -471 : i32
    %c-35_i32 = arith.constant -35 : i32
    %c-867_i32 = arith.constant -867 : i32
    %c571_i32 = arith.constant 571 : i32
    %c581_i32 = arith.constant 581 : i32
    %c4260_i32 = arith.constant 4260 : i32
    %c3943_i32 = arith.constant 3943 : i32
    %c591_i32 = arith.constant 591 : i32
    %c-889_i32 = arith.constant -889 : i32
    %c-5103_i32 = arith.constant -5103 : i32
    %c59_i8 = arith.constant 59 : i8
    %c-59_i8 = arith.constant -59 : i8
    %c-9_i32 = arith.constant -9 : i32
    %c-54_i32 = arith.constant -54 : i32
    %c57_i32 = arith.constant 57 : i32
    %c71_i32 = arith.constant 71 : i32
    %c104_i32 = arith.constant 104 : i32
    %c115_i32 = arith.constant 115 : i32
    %c98_i32 = arith.constant 98 : i32
    %c99_i32 = arith.constant 99 : i32
    %c64_i32 = arith.constant 64 : i32
    %c-26_i32 = arith.constant -26 : i32
    %c127_i32 = arith.constant 127 : i32
    %c25_i32 = arith.constant 25 : i32
    %c-82_i32 = arith.constant -82 : i32
    %c68_i32 = arith.constant 68 : i32
    %c95_i32 = arith.constant 95 : i32
    %c86_i32 = arith.constant 86 : i32
    %c-12_i32 = arith.constant -12 : i32
    %c26_i32 = arith.constant 26 : i32
    %c-19_i32 = arith.constant -19 : i32
    %c9_i32 = arith.constant 9 : i32
    %c33_i32 = arith.constant 33 : i32
    %c36_i32 = arith.constant 36 : i32
    %c-32_i32 = arith.constant -32 : i32
    %c-17_i32 = arith.constant -17 : i32
    %c-68_i32 = arith.constant -68 : i32
    %c-11_i32 = arith.constant -11 : i32
    %c-6_i32 = arith.constant -6 : i32
    %c3_i32 = arith.constant 3 : i32
    %c-36_i32 = arith.constant -36 : i32
    %c-46_i32 = arith.constant -46 : i32
    %c2_i32 = arith.constant 2 : i32
    %c6_i32 = arith.constant 6 : i32
    %c-7_i32 = arith.constant -7 : i32
    %c-15_i32 = arith.constant -15 : i32
    %c-45_i32 = arith.constant -45 : i32
    %c39_i32 = arith.constant 39 : i32
    %c-31_i32 = arith.constant -31 : i32
    %c-5_i32 = arith.constant -5 : i32
    %c-21_i32 = arith.constant -21 : i32
    %c-37_i32 = arith.constant -37 : i32
    %c-28_i32 = arith.constant -28 : i32
    %c5_i32 = arith.constant 5 : i32
    %c23_i32 = arith.constant 23 : i32
    %c-4_i32 = arith.constant -4 : i32
    %c18_i32 = arith.constant 18 : i32
    %c21_i32 = arith.constant 21 : i32
    %c30_i32 = arith.constant 30 : i32
    %c-2_i32 = arith.constant -2 : i32
    %c20_i32 = arith.constant 20 : i32
    %c-38_i32 = arith.constant -38 : i32
    %c28_i32 = arith.constant 28 : i32
    %c-8_i32 = arith.constant -8 : i32
    %c-13_i32 = arith.constant -13 : i32
    %c-30_i32 = arith.constant -30 : i32
    %c-29_i32 = arith.constant -29 : i32
    %c-23_i32 = arith.constant -23 : i32
    %c7_i32 = arith.constant 7 : i32
    %c11_i32 = arith.constant 11 : i32
    %c4_i32 = arith.constant 4 : i32
    %c27_i32 = arith.constant 27 : i32
    %c-34_i32 = arith.constant -34 : i32
    %c-20_i32 = arith.constant -20 : i32
    %c35_i32 = arith.constant 35 : i32
    %c10_i32 = arith.constant 10 : i32
    %c34_i32 = arith.constant 34 : i32
    %c-64_i32 = arith.constant -64 : i32
    %c17_i32 = arith.constant 17 : i32
    %c-27_i32 = arith.constant -27 : i32
    %c-24_i32 = arith.constant -24 : i32
    %c-3_i32 = arith.constant -3 : i32
    %c38_i32 = arith.constant 38 : i32
    %c-25_i32 = arith.constant -25 : i32
    %c-22_i32 = arith.constant -22 : i32
    %c29_i32 = arith.constant 29 : i32
    %c32_i32 = arith.constant 32 : i32
    %c55_i32 = arith.constant 55 : i32
    %c22_i32 = arith.constant 22 : i32
    %c46_i32 = arith.constant 46 : i32
    %c-39_i32 = arith.constant -39 : i32
    %c-40_i32 = arith.constant -40 : i32
    %c19_i32 = arith.constant 19 : i32
    %c-60_i32 = arith.constant -60 : i32
    %c13_i32 = arith.constant 13 : i32
    %c-42_i32 = arith.constant -42 : i32
    %c-41_i32 = arith.constant -41 : i32
    %c-58_i32 = arith.constant -58 : i32
    %c62_i32 = arith.constant 62 : i32
    %c-57_i32 = arith.constant -57 : i32
    %c8_i32 = arith.constant 8 : i32
    %c15_i32 = arith.constant 15 : i32
    %c-18_i32 = arith.constant -18 : i32
    %c41_i32 = arith.constant 41 : i32
    %c88_i32 = arith.constant 88 : i32
    %c59_i32 = arith.constant 59 : i32
    %c-59_i32 = arith.constant -59 : i32
    %c108_i32 = arith.constant 108 : i32
    %c-1404_i32 = arith.constant -1404 : i32
    %c-858_i32 = arith.constant -858 : i32
    %c738_i32 = arith.constant 738 : i32
    %c1944_i32 = arith.constant 1944 : i32
    %c156_i32 = arith.constant 156 : i32
    %c1394_i32 = arith.constant 1394 : i32
    %c45_i32 = arith.constant 45 : i32
    %c-2106_i32 = arith.constant -2106 : i32
    %c-1722_i32 = arith.constant -1722 : i32
    %c-144_i32 = arith.constant -144 : i32
    %c780_i32 = arith.constant 780 : i32
    %c2378_i32 = arith.constant 2378 : i32
    %c252_i32 = arith.constant 252 : i32
    %c-1134_i32 = arith.constant -1134 : i32
    %c2132_i32 = arith.constant 2132 : i32
    %c-315_i32 = arith.constant -315 : i32
    %c-540_i32 = arith.constant -540 : i32
    %c-936_i32 = arith.constant -936 : i32
    %c-1394_i32 = arith.constant -1394 : i32
    %c-153_i32 = arith.constant -153 : i32
    %c-648_i32 = arith.constant -648 : i32
    %c494_i32 = arith.constant 494 : i32
    %c1968_i32 = arith.constant 1968 : i32
    %c315_i32 = arith.constant 315 : i32
    %c270_i32 = arith.constant 270 : i32
    %c390_i32 = arith.constant 390 : i32
    %c-164_i32 = arith.constant -164 : i32
    %c-333_i32 = arith.constant -333 : i32
    %c-1782_i32 = arith.constant -1782 : i32
    %c-902_i32 = arith.constant -902 : i32
    %c153_i32 = arith.constant 153 : i32
    %c-1512_i32 = arith.constant -1512 : i32
    %c-624_i32 = arith.constant -624 : i32
    %c3198_i32 = arith.constant 3198 : i32
    %c198_i32 = arith.constant 198 : i32
    %c1014_i32 = arith.constant 1014 : i32
    %c-2050_i32 = arith.constant -2050 : i32
    %c-1674_i32 = arith.constant -1674 : i32
    %c650_i32 = arith.constant 650 : i32
    %c333_i32 = arith.constant 333 : i32
    %c1350_i32 = arith.constant 1350 : i32
    %c-234_i32 = arith.constant -234 : i32
    %c-656_i32 = arith.constant -656 : i32
    %c-225_i32 = arith.constant -225 : i32
    %c-1620_i32 = arith.constant -1620 : i32
    %c-832_i32 = arith.constant -832 : i32
    %c207_i32 = arith.constant 207 : i32
    %c-1944_i32 = arith.constant -1944 : i32
    %c-338_i32 = arith.constant -338 : i32
    %c2870_i32 = arith.constant 2870 : i32
    %c-72_i32 = arith.constant -72 : i32
    %c-1836_i32 = arith.constant -1836 : i32
    %c-468_i32 = arith.constant -468 : i32
    %c2952_i32 = arith.constant 2952 : i32
    %alloc = memref.alloc() {alignment = 64 : i64} : memref<1x16xi8>
    affine.store %c-9_i8, %alloc[0, 0] : memref<1x16xi8>
    affine.store %c-54_i8, %alloc[0, 1] : memref<1x16xi8>
    affine.store %c57_i8, %alloc[0, 2] : memref<1x16xi8>
    affine.store %c71_i8, %alloc[0, 3] : memref<1x16xi8>
    affine.store %c104_i8, %alloc[0, 4] : memref<1x16xi8>
    affine.store %c115_i8, %alloc[0, 5] : memref<1x16xi8>
    affine.store %c98_i8, %alloc[0, 6] : memref<1x16xi8>
    affine.store %c99_i8, %alloc[0, 7] : memref<1x16xi8>
    affine.store %c64_i8, %alloc[0, 8] : memref<1x16xi8>
    affine.store %c-26_i8, %alloc[0, 9] : memref<1x16xi8>
    affine.store %c127_i8, %alloc[0, 10] : memref<1x16xi8>
    affine.store %c25_i8, %alloc[0, 11] : memref<1x16xi8>
    affine.store %c-82_i8, %alloc[0, 12] : memref<1x16xi8>
    affine.store %c68_i8, %alloc[0, 13] : memref<1x16xi8>
    affine.store %c95_i8, %alloc[0, 14] : memref<1x16xi8>
    affine.store %c86_i8, %alloc[0, 15] : memref<1x16xi8>
    %alloc_0 = memref.alloc() {alignment = 64 : i64} : memref<1x16xi32>
    affine.store %c0_i32, %alloc_0[0, 0] : memref<1x16xi32>
    affine.store %c0_i32, %alloc_0[0, 1] : memref<1x16xi32>
    affine.store %c-5438_i32, %alloc_0[0, 2] : memref<1x16xi32>
    affine.store %c-5515_i32, %alloc_0[0, 3] : memref<1x16xi32>
    affine.store %c-1352_i32, %alloc_0[0, 4] : memref<1x16xi32>
    affine.store %c-1500_i32, %alloc_0[0, 5] : memref<1x16xi32>
    affine.store %c-4152_i32, %alloc_0[0, 6] : memref<1x16xi32>
    affine.store %c-84_i32, %alloc_0[0, 7] : memref<1x16xi32>
    affine.store %c3396_i32, %alloc_0[0, 8] : memref<1x16xi32>
    affine.store %c0_i32, %alloc_0[0, 9] : memref<1x16xi32>
    affine.store %c1981_i32, %alloc_0[0, 10] : memref<1x16xi32>
    affine.store %c-5581_i32, %alloc_0[0, 11] : memref<1x16xi32>
    affine.store %c0_i32, %alloc_0[0, 12] : memref<1x16xi32>
    affine.store %c-6964_i32, %alloc_0[0, 13] : memref<1x16xi32>
    affine.store %c3407_i32, %alloc_0[0, 14] : memref<1x16xi32>
    affine.store %c-7217_i32, %alloc_0[0, 15] : memref<1x16xi32>
    %0 = affine.load %arg0[0, 0] : memref<1x1xi32, strided<[?, ?], offset: ?>>
    %1 = arith.muli %0, %c-9_i32 : i32
    affine.store %1, %alloc_0[0, 0] : memref<1x16xi32>
    %2 = affine.load %arg0[0, 0] : memref<1x1xi32, strided<[?, ?], offset: ?>>
    %3 = arith.muli %2, %c-54_i32 : i32
    affine.store %3, %alloc_0[0, 1] : memref<1x16xi32>
    %4 = affine.load %arg0[0, 0] : memref<1x1xi32, strided<[?, ?], offset: ?>>
    %5 = arith.muli %4, %c57_i32 : i32
    %6 = arith.addi %5, %c-5438_i32 : i32
    affine.store %6, %alloc_0[0, 2] : memref<1x16xi32>
    %7 = affine.load %arg0[0, 0] : memref<1x1xi32, strided<[?, ?], offset: ?>>
    %8 = arith.muli %7, %c71_i32 : i32
    %9 = arith.addi %8, %c-5515_i32 : i32
    affine.store %9, %alloc_0[0, 3] : memref<1x16xi32>
    %10 = affine.load %arg0[0, 0] : memref<1x1xi32, strided<[?, ?], offset: ?>>
    %11 = arith.muli %10, %c104_i32 : i32
    %12 = arith.addi %11, %c-1352_i32 : i32
    affine.store %12, %alloc_0[0, 4] : memref<1x16xi32>
    %13 = affine.load %arg0[0, 0] : memref<1x1xi32, strided<[?, ?], offset: ?>>
    %14 = arith.muli %13, %c115_i32 : i32
    %15 = arith.addi %14, %c-1500_i32 : i32
    affine.store %15, %alloc_0[0, 5] : memref<1x16xi32>
    %16 = affine.load %arg0[0, 0] : memref<1x1xi32, strided<[?, ?], offset: ?>>
    %17 = arith.muli %16, %c98_i32 : i32
    %18 = arith.addi %17, %c-4152_i32 : i32
    affine.store %18, %alloc_0[0, 6] : memref<1x16xi32>
    %19 = affine.load %arg0[0, 0] : memref<1x1xi32, strided<[?, ?], offset: ?>>
    %20 = arith.muli %19, %c99_i32 : i32
    %21 = arith.addi %20, %c-84_i32 : i32
    affine.store %21, %alloc_0[0, 7] : memref<1x16xi32>
    %22 = affine.load %arg0[0, 0] : memref<1x1xi32, strided<[?, ?], offset: ?>>
    %23 = arith.muli %22, %c64_i32 : i32
    %24 = arith.addi %23, %c3396_i32 : i32
    affine.store %24, %alloc_0[0, 8] : memref<1x16xi32>
    %25 = affine.load %arg0[0, 0] : memref<1x1xi32, strided<[?, ?], offset: ?>>
    %26 = arith.muli %25, %c-26_i32 : i32
    affine.store %26, %alloc_0[0, 9] : memref<1x16xi32>
    %27 = affine.load %arg0[0, 0] : memref<1x1xi32, strided<[?, ?], offset: ?>>
    %28 = arith.muli %27, %c127_i32 : i32
    %29 = arith.addi %28, %c1981_i32 : i32
    affine.store %29, %alloc_0[0, 10] : memref<1x16xi32>
    %30 = affine.load %arg0[0, 0] : memref<1x1xi32, strided<[?, ?], offset: ?>>
    %31 = arith.muli %30, %c25_i32 : i32
    %32 = arith.addi %31, %c-5581_i32 : i32
    affine.store %32, %alloc_0[0, 11] : memref<1x16xi32>
    %33 = affine.load %arg0[0, 0] : memref<1x1xi32, strided<[?, ?], offset: ?>>
    %34 = arith.muli %33, %c-82_i32 : i32
    affine.store %34, %alloc_0[0, 12] : memref<1x16xi32>
    %35 = affine.load %arg0[0, 0] : memref<1x1xi32, strided<[?, ?], offset: ?>>
    %36 = arith.muli %35, %c68_i32 : i32
    %37 = arith.addi %36, %c-6964_i32 : i32
    affine.store %37, %alloc_0[0, 13] : memref<1x16xi32>
    %38 = affine.load %arg0[0, 0] : memref<1x1xi32, strided<[?, ?], offset: ?>>
    %39 = arith.muli %38, %c95_i32 : i32
    %40 = arith.addi %39, %c3407_i32 : i32
    affine.store %40, %alloc_0[0, 14] : memref<1x16xi32>
    %41 = affine.load %arg0[0, 0] : memref<1x1xi32, strided<[?, ?], offset: ?>>
    %42 = arith.muli %41, %c86_i32 : i32
    %43 = arith.addi %42, %c-7217_i32 : i32
    affine.store %43, %alloc_0[0, 15] : memref<1x16xi32>
    %alloc_1 = memref.alloc() {alignment = 64 : i64} : memref<16x16xi8>
    affine.store %c-12_i8, %alloc_1[0, 0] : memref<16x16xi8>
    affine.store %c3_i8, %alloc_1[0, 1] : memref<16x16xi8>
    affine.store %c-5_i8, %alloc_1[0, 2] : memref<16x16xi8>
    affine.store %c16_i8, %alloc_1[0, 3] : memref<16x16xi8>
    affine.store %c-28_i8, %alloc_1[0, 4] : memref<16x16xi8>
    affine.store %c35_i8, %alloc_1[0, 5] : memref<16x16xi8>
    affine.store %c17_i8, %alloc_1[0, 6] : memref<16x16xi8>
    affine.store %c-35_i8, %alloc_1[0, 7] : memref<16x16xi8>
    affine.store %c37_i8, %alloc_1[0, 8] : memref<16x16xi8>
    affine.store %c-17_i8, %alloc_1[0, 9] : memref<16x16xi8>
    affine.store %c-22_i8, %alloc_1[0, 10] : memref<16x16xi8>
    affine.store %c-30_i8, %alloc_1[0, 11] : memref<16x16xi8>
    affine.store %c-37_i8, %alloc_1[0, 12] : memref<16x16xi8>
    affine.store %c25_i8, %alloc_1[0, 13] : memref<16x16xi8>
    affine.store %c-23_i8, %alloc_1[0, 14] : memref<16x16xi8>
    affine.store %c8_i8, %alloc_1[0, 15] : memref<16x16xi8>
    affine.store %c26_i8, %alloc_1[1, 0] : memref<16x16xi8>
    affine.store %c-36_i8, %alloc_1[1, 1] : memref<16x16xi8>
    affine.store %c39_i8, %alloc_1[1, 2] : memref<16x16xi8>
    affine.store %c-2_i8, %alloc_1[1, 3] : memref<16x16xi8>
    affine.store %c21_i8, %alloc_1[1, 4] : memref<16x16xi8>
    affine.store %c10_i8, %alloc_1[1, 5] : memref<16x16xi8>
    affine.store %c12_i8, %alloc_1[1, 6] : memref<16x16xi8>
    affine.store %c-5_i8, %alloc_1[1, 7] : memref<16x16xi8>
    affine.store %c33_i8, %alloc_1[1, 8] : memref<16x16xi8>
    affine.store %c28_i8, %alloc_1[1, 9] : memref<16x16xi8>
    affine.store %c26_i8, %alloc_1[1, 10] : memref<16x16xi8>
    affine.store %c31_i8, %alloc_1[1, 11] : memref<16x16xi8>
    affine.store %c-25_i8, %alloc_1[1, 12] : memref<16x16xi8>
    affine.store %c30_i8, %alloc_1[1, 13] : memref<16x16xi8>
    affine.store %c36_i8, %alloc_1[1, 14] : memref<16x16xi8>
    affine.store %c34_i8, %alloc_1[1, 15] : memref<16x16xi8>
    affine.store %c-19_i8, %alloc_1[2, 0] : memref<16x16xi8>
    affine.store %c-46_i8, %alloc_1[2, 1] : memref<16x16xi8>
    affine.store %c-35_i8, %alloc_1[2, 2] : memref<16x16xi8>
    affine.store %c20_i8, %alloc_1[2, 3] : memref<16x16xi8>
    affine.store %c7_i8, %alloc_1[2, 4] : memref<16x16xi8>
    affine.store %c34_i8, %alloc_1[2, 5] : memref<16x16xi8>
    affine.store %c-11_i8, %alloc_1[2, 6] : memref<16x16xi8>
    affine.store %c-3_i8, %alloc_1[2, 7] : memref<16x16xi8>
    affine.store %c29_i8, %alloc_1[2, 8] : memref<16x16xi8>
    affine.store %c-25_i8, %alloc_1[2, 9] : memref<16x16xi8>
    affine.store %c-4_i8, %alloc_1[2, 10] : memref<16x16xi8>
    affine.store %c-23_i8, %alloc_1[2, 11] : memref<16x16xi8>
    affine.store %c21_i8, %alloc_1[2, 12] : memref<16x16xi8>
    affine.store %c-30_i8, %alloc_1[2, 13] : memref<16x16xi8>
    affine.store %c-26_i8, %alloc_1[2, 14] : memref<16x16xi8>
    affine.store %c38_i8, %alloc_1[2, 15] : memref<16x16xi8>
    affine.store %c9_i8, %alloc_1[3, 0] : memref<16x16xi8>
    affine.store %c2_i8, %alloc_1[3, 1] : memref<16x16xi8>
    affine.store %c-21_i8, %alloc_1[3, 2] : memref<16x16xi8>
    affine.store %c-38_i8, %alloc_1[3, 3] : memref<16x16xi8>
    affine.store %c11_i8, %alloc_1[3, 4] : memref<16x16xi8>
    affine.store %c36_i8, %alloc_1[3, 5] : memref<16x16xi8>
    affine.store %c-32_i8, %alloc_1[3, 6] : memref<16x16xi8>
    affine.store %c0_i8, %alloc_1[3, 7] : memref<16x16xi8>
    affine.store %c10_i8, %alloc_1[3, 8] : memref<16x16xi8>
    affine.store %c3_i8, %alloc_1[3, 9] : memref<16x16xi8>
    affine.store %c-40_i8, %alloc_1[3, 10] : memref<16x16xi8>
    affine.store %c-41_i8, %alloc_1[3, 11] : memref<16x16xi8>
    affine.store %c21_i8, %alloc_1[3, 12] : memref<16x16xi8>
    affine.store %c9_i8, %alloc_1[3, 13] : memref<16x16xi8>
    affine.store %c41_i8, %alloc_1[3, 14] : memref<16x16xi8>
    affine.store %c33_i8, %alloc_1[3, 15] : memref<16x16xi8>
    affine.store %c25_i8, %alloc_1[4, 0] : memref<16x16xi8>
    affine.store %c6_i8, %alloc_1[4, 1] : memref<16x16xi8>
    affine.store %c-37_i8, %alloc_1[4, 2] : memref<16x16xi8>
    affine.store %c28_i8, %alloc_1[4, 3] : memref<16x16xi8>
    affine.store %c4_i8, %alloc_1[4, 4] : memref<16x16xi8>
    affine.store %c30_i8, %alloc_1[4, 5] : memref<16x16xi8>
    affine.store %c-13_i8, %alloc_1[4, 6] : memref<16x16xi8>
    affine.store %c20_i8, %alloc_1[4, 7] : memref<16x16xi8>
    affine.store %c-37_i8, %alloc_1[4, 8] : memref<16x16xi8>
    affine.store %c-32_i8, %alloc_1[4, 9] : memref<16x16xi8>
    affine.store %c19_i8, %alloc_1[4, 10] : memref<16x16xi8>
    affine.store %c-54_i8, %alloc_1[4, 11] : memref<16x16xi8>
    affine.store %c-11_i8, %alloc_1[4, 12] : memref<16x16xi8>
    affine.store %c-3_i8, %alloc_1[4, 13] : memref<16x16xi8>
    affine.store %c0_i8, %alloc_1[4, 14] : memref<16x16xi8>
    affine.store %c9_i8, %alloc_1[4, 15] : memref<16x16xi8>
    affine.store %c33_i8, %alloc_1[5, 0] : memref<16x16xi8>
    affine.store %c-7_i8, %alloc_1[5, 1] : memref<16x16xi8>
    affine.store %c-28_i8, %alloc_1[5, 2] : memref<16x16xi8>
    affine.store %c-8_i8, %alloc_1[5, 3] : memref<16x16xi8>
    affine.store %c27_i8, %alloc_1[5, 4] : memref<16x16xi8>
    affine.store %c39_i8, %alloc_1[5, 5] : memref<16x16xi8>
    affine.store %c7_i8, %alloc_1[5, 6] : memref<16x16xi8>
    affine.store %c38_i8, %alloc_1[5, 7] : memref<16x16xi8>
    affine.store %c29_i8, %alloc_1[5, 8] : memref<16x16xi8>
    affine.store %c22_i8, %alloc_1[5, 9] : memref<16x16xi8>
    affine.store %c0_i8, %alloc_1[5, 10] : memref<16x16xi8>
    affine.store %c-30_i8, %alloc_1[5, 11] : memref<16x16xi8>
    affine.store %c6_i8, %alloc_1[5, 12] : memref<16x16xi8>
    affine.store %c-13_i8, %alloc_1[5, 13] : memref<16x16xi8>
    affine.store %c7_i8, %alloc_1[5, 14] : memref<16x16xi8>
    affine.store %c8_i8, %alloc_1[5, 15] : memref<16x16xi8>
    affine.store %c-12_i8, %alloc_1[6, 0] : memref<16x16xi8>
    affine.store %c-12_i8, %alloc_1[6, 1] : memref<16x16xi8>
    affine.store %c5_i8, %alloc_1[6, 2] : memref<16x16xi8>
    affine.store %c-13_i8, %alloc_1[6, 3] : memref<16x16xi8>
    affine.store %c26_i8, %alloc_1[6, 4] : memref<16x16xi8>
    affine.store %c3_i8, %alloc_1[6, 5] : memref<16x16xi8>
    affine.store %c23_i8, %alloc_1[6, 6] : memref<16x16xi8>
    affine.store %c17_i8, %alloc_1[6, 7] : memref<16x16xi8>
    affine.store %c-36_i8, %alloc_1[6, 8] : memref<16x16xi8>
    affine.store %c2_i8, %alloc_1[6, 9] : memref<16x16xi8>
    affine.store %c-60_i8, %alloc_1[6, 10] : memref<16x16xi8>
    affine.store %c-35_i8, %alloc_1[6, 11] : memref<16x16xi8>
    affine.store %c-42_i8, %alloc_1[6, 12] : memref<16x16xi8>
    affine.store %c20_i8, %alloc_1[6, 13] : memref<16x16xi8>
    affine.store %c22_i8, %alloc_1[6, 14] : memref<16x16xi8>
    affine.store %c15_i8, %alloc_1[6, 15] : memref<16x16xi8>
    affine.store %c36_i8, %alloc_1[7, 0] : memref<16x16xi8>
    affine.store %c2_i8, %alloc_1[7, 1] : memref<16x16xi8>
    affine.store %c26_i8, %alloc_1[7, 2] : memref<16x16xi8>
    affine.store %c-15_i8, %alloc_1[7, 3] : memref<16x16xi8>
    affine.store %c-2_i8, %alloc_1[7, 4] : memref<16x16xi8>
    affine.store %c-26_i8, %alloc_1[7, 5] : memref<16x16xi8>
    affine.store %c-27_i8, %alloc_1[7, 6] : memref<16x16xi8>
    affine.store %c23_i8, %alloc_1[7, 7] : memref<16x16xi8>
    affine.store %c32_i8, %alloc_1[7, 8] : memref<16x16xi8>
    affine.store %c3_i8, %alloc_1[7, 9] : memref<16x16xi8>
    affine.store %c-40_i8, %alloc_1[7, 10] : memref<16x16xi8>
    affine.store %c-58_i8, %alloc_1[7, 11] : memref<16x16xi8>
    affine.store %c26_i8, %alloc_1[7, 12] : memref<16x16xi8>
    affine.store %c-35_i8, %alloc_1[7, 13] : memref<16x16xi8>
    affine.store %c-30_i8, %alloc_1[7, 14] : memref<16x16xi8>
    affine.store %c11_i8, %alloc_1[7, 15] : memref<16x16xi8>
    affine.store %c-32_i8, %alloc_1[8, 0] : memref<16x16xi8>
    affine.store %c-1_i8, %alloc_1[8, 1] : memref<16x16xi8>
    affine.store %c23_i8, %alloc_1[8, 2] : memref<16x16xi8>
    affine.store %c-17_i8, %alloc_1[8, 3] : memref<16x16xi8>
    affine.store %c-21_i8, %alloc_1[8, 4] : memref<16x16xi8>
    affine.store %c3_i8, %alloc_1[8, 5] : memref<16x16xi8>
    affine.store %c-24_i8, %alloc_1[8, 6] : memref<16x16xi8>
    affine.store %c-25_i8, %alloc_1[8, 7] : memref<16x16xi8>
    affine.store %c1_i8, %alloc_1[8, 8] : memref<16x16xi8>
    affine.store %c33_i8, %alloc_1[8, 9] : memref<16x16xi8>
    affine.store %c-20_i8, %alloc_1[8, 10] : memref<16x16xi8>
    affine.store %c19_i8, %alloc_1[8, 11] : memref<16x16xi8>
    affine.store %c-36_i8, %alloc_1[8, 12] : memref<16x16xi8>
    affine.store %c-38_i8, %alloc_1[8, 13] : memref<16x16xi8>
    affine.store %c30_i8, %alloc_1[8, 14] : memref<16x16xi8>
    affine.store %c-32_i8, %alloc_1[8, 15] : memref<16x16xi8>
    affine.store %c33_i8, %alloc_1[9, 0] : memref<16x16xi8>
    affine.store %c-6_i8, %alloc_1[9, 1] : memref<16x16xi8>
    affine.store %c-4_i8, %alloc_1[9, 2] : memref<16x16xi8>
    affine.store %c-30_i8, %alloc_1[9, 3] : memref<16x16xi8>
    affine.store %c1_i8, %alloc_1[9, 4] : memref<16x16xi8>
    affine.store %c36_i8, %alloc_1[9, 5] : memref<16x16xi8>
    affine.store %c-19_i8, %alloc_1[9, 6] : memref<16x16xi8>
    affine.store %c-15_i8, %alloc_1[9, 7] : memref<16x16xi8>
    affine.store %c-6_i8, %alloc_1[9, 8] : memref<16x16xi8>
    affine.store %c24_i8, %alloc_1[9, 9] : memref<16x16xi8>
    affine.store %c-39_i8, %alloc_1[9, 10] : memref<16x16xi8>
    affine.store %c-25_i8, %alloc_1[9, 11] : memref<16x16xi8>
    affine.store %c9_i8, %alloc_1[9, 12] : memref<16x16xi8>
    affine.store %c32_i8, %alloc_1[9, 13] : memref<16x16xi8>
    affine.store %c13_i8, %alloc_1[9, 14] : memref<16x16xi8>
    affine.store %c18_i8, %alloc_1[9, 15] : memref<16x16xi8>
    affine.store %c-17_i8, %alloc_1[10, 0] : memref<16x16xi8>
    affine.store %c-17_i8, %alloc_1[10, 1] : memref<16x16xi8>
    affine.store %c36_i8, %alloc_1[10, 2] : memref<16x16xi8>
    affine.store %c-13_i8, %alloc_1[10, 3] : memref<16x16xi8>
    affine.store %c-34_i8, %alloc_1[10, 4] : memref<16x16xi8>
    affine.store %c-1_i8, %alloc_1[10, 5] : memref<16x16xi8>
    affine.store %c-6_i8, %alloc_1[10, 6] : memref<16x16xi8>
    affine.store %c17_i8, %alloc_1[10, 7] : memref<16x16xi8>
    affine.store %c-29_i8, %alloc_1[10, 8] : memref<16x16xi8>
    affine.store %c9_i8, %alloc_1[10, 9] : memref<16x16xi8>
    affine.store %c-2_i8, %alloc_1[10, 10] : memref<16x16xi8>
    affine.store %c4_i8, %alloc_1[10, 11] : memref<16x16xi8>
    affine.store %c34_i8, %alloc_1[10, 12] : memref<16x16xi8>
    affine.store %c-39_i8, %alloc_1[10, 13] : memref<16x16xi8>
    affine.store %c35_i8, %alloc_1[10, 14] : memref<16x16xi8>
    affine.store %c-12_i8, %alloc_1[10, 15] : memref<16x16xi8>
    affine.store %c-68_i8, %alloc_1[11, 0] : memref<16x16xi8>
    affine.store %c-15_i8, %alloc_1[11, 1] : memref<16x16xi8>
    affine.store %c18_i8, %alloc_1[11, 2] : memref<16x16xi8>
    affine.store %c9_i8, %alloc_1[11, 3] : memref<16x16xi8>
    affine.store %c33_i8, %alloc_1[11, 4] : memref<16x16xi8>
    affine.store %c-64_i8, %alloc_1[11, 5] : memref<16x16xi8>
    affine.store %c-36_i8, %alloc_1[11, 6] : memref<16x16xi8>
    affine.store %c-22_i8, %alloc_1[11, 7] : memref<16x16xi8>
    affine.store %c55_i8, %alloc_1[11, 8] : memref<16x16xi8>
    affine.store %c46_i8, %alloc_1[11, 9] : memref<16x16xi8>
    affine.store %c13_i8, %alloc_1[11, 10] : memref<16x16xi8>
    affine.store %c62_i8, %alloc_1[11, 11] : memref<16x16xi8>
    affine.store %c-2_i8, %alloc_1[11, 12] : memref<16x16xi8>
    affine.store %c15_i8, %alloc_1[11, 13] : memref<16x16xi8>
    affine.store %c-45_i8, %alloc_1[11, 14] : memref<16x16xi8>
    affine.store %c127_i8, %alloc_1[11, 15] : memref<16x16xi8>
    affine.store %c-9_i8, %alloc_1[12, 0] : memref<16x16xi8>
    affine.store %c-17_i8, %alloc_1[12, 1] : memref<16x16xi8>
    affine.store %c21_i8, %alloc_1[12, 2] : memref<16x16xi8>
    affine.store %c-29_i8, %alloc_1[12, 3] : memref<16x16xi8>
    affine.store %c-26_i8, %alloc_1[12, 4] : memref<16x16xi8>
    affine.store %c17_i8, %alloc_1[12, 5] : memref<16x16xi8>
    affine.store %c-24_i8, %alloc_1[12, 6] : memref<16x16xi8>
    affine.store %c2_i8, %alloc_1[12, 7] : memref<16x16xi8>
    affine.store %c11_i8, %alloc_1[12, 8] : memref<16x16xi8>
    affine.store %c-39_i8, %alloc_1[12, 9] : memref<16x16xi8>
    affine.store %c25_i8, %alloc_1[12, 10] : memref<16x16xi8>
    affine.store %c0_i8, %alloc_1[12, 11] : memref<16x16xi8>
    affine.store %c8_i8, %alloc_1[12, 12] : memref<16x16xi8>
    affine.store %c-29_i8, %alloc_1[12, 13] : memref<16x16xi8>
    affine.store %c-35_i8, %alloc_1[12, 14] : memref<16x16xi8>
    affine.store %c-36_i8, %alloc_1[12, 15] : memref<16x16xi8>
    affine.store %c-11_i8, %alloc_1[13, 0] : memref<16x16xi8>
    affine.store %c-45_i8, %alloc_1[13, 1] : memref<16x16xi8>
    affine.store %c-17_i8, %alloc_1[13, 2] : memref<16x16xi8>
    affine.store %c-23_i8, %alloc_1[13, 3] : memref<16x16xi8>
    affine.store %c11_i8, %alloc_1[13, 4] : memref<16x16xi8>
    affine.store %c-8_i8, %alloc_1[13, 5] : memref<16x16xi8>
    affine.store %c35_i8, %alloc_1[13, 6] : memref<16x16xi8>
    affine.store %c38_i8, %alloc_1[13, 7] : memref<16x16xi8>
    affine.store %c-15_i8, %alloc_1[13, 8] : memref<16x16xi8>
    affine.store %c-27_i8, %alloc_1[13, 9] : memref<16x16xi8>
    affine.store %c32_i8, %alloc_1[13, 10] : memref<16x16xi8>
    affine.store %c1_i8, %alloc_1[13, 11] : memref<16x16xi8>
    affine.store %c2_i8, %alloc_1[13, 12] : memref<16x16xi8>
    affine.store %c-7_i8, %alloc_1[13, 13] : memref<16x16xi8>
    affine.store %c-9_i8, %alloc_1[13, 14] : memref<16x16xi8>
    affine.store %c88_i8, %alloc_1[13, 15] : memref<16x16xi8>
    affine.store %c-6_i8, %alloc_1[14, 0] : memref<16x16xi8>
    affine.store %c39_i8, %alloc_1[14, 1] : memref<16x16xi8>
    affine.store %c30_i8, %alloc_1[14, 2] : memref<16x16xi8>
    affine.store %c-19_i8, %alloc_1[14, 3] : memref<16x16xi8>
    affine.store %c-20_i8, %alloc_1[14, 4] : memref<16x16xi8>
    affine.store %c-4_i8, %alloc_1[14, 5] : memref<16x16xi8>
    affine.store %c-5_i8, %alloc_1[14, 6] : memref<16x16xi8>
    affine.store %c4_i8, %alloc_1[14, 7] : memref<16x16xi8>
    affine.store %c26_i8, %alloc_1[14, 8] : memref<16x16xi8>
    affine.store %c20_i8, %alloc_1[14, 9] : memref<16x16xi8>
    affine.store %c-40_i8, %alloc_1[14, 10] : memref<16x16xi8>
    affine.store %c20_i8, %alloc_1[14, 11] : memref<16x16xi8>
    affine.store %c19_i8, %alloc_1[14, 12] : memref<16x16xi8>
    affine.store %c-9_i8, %alloc_1[14, 13] : memref<16x16xi8>
    affine.store %c20_i8, %alloc_1[14, 14] : memref<16x16xi8>
    affine.store %c-27_i8, %alloc_1[14, 15] : memref<16x16xi8>
    affine.store %c25_i8, %alloc_1[15, 0] : memref<16x16xi8>
    affine.store %c-31_i8, %alloc_1[15, 1] : memref<16x16xi8>
    affine.store %c-28_i8, %alloc_1[15, 2] : memref<16x16xi8>
    affine.store %c-29_i8, %alloc_1[15, 3] : memref<16x16xi8>
    affine.store %c3_i8, %alloc_1[15, 4] : memref<16x16xi8>
    affine.store %c-15_i8, %alloc_1[15, 5] : memref<16x16xi8>
    affine.store %c7_i8, %alloc_1[15, 6] : memref<16x16xi8>
    affine.store %c4_i8, %alloc_1[15, 7] : memref<16x16xi8>
    affine.store %c22_i8, %alloc_1[15, 8] : memref<16x16xi8>
    affine.store %c11_i8, %alloc_1[15, 9] : memref<16x16xi8>
    affine.store %c-42_i8, %alloc_1[15, 10] : memref<16x16xi8>
    affine.store %c-57_i8, %alloc_1[15, 11] : memref<16x16xi8>
    affine.store %c-17_i8, %alloc_1[15, 12] : memref<16x16xi8>
    affine.store %c-18_i8, %alloc_1[15, 13] : memref<16x16xi8>
    affine.store %c-6_i8, %alloc_1[15, 14] : memref<16x16xi8>
    affine.store %c38_i8, %alloc_1[15, 15] : memref<16x16xi8>
    %alloc_2 = memref.alloc() {alignment = 64 : i64} : memref<1x16xi32>
    affine.store %c-729_i32, %alloc_2[0, 0] : memref<1x16xi32>
    affine.store %c1954_i32, %alloc_2[0, 1] : memref<1x16xi32>
    affine.store %c610_i32, %alloc_2[0, 2] : memref<1x16xi32>
    affine.store %c0_i32, %alloc_2[0, 3] : memref<1x16xi32>
    affine.store %c241_i32, %alloc_2[0, 4] : memref<1x16xi32>
    affine.store %c-471_i32, %alloc_2[0, 5] : memref<1x16xi32>
    affine.store %c-35_i32, %alloc_2[0, 6] : memref<1x16xi32>
    affine.store %c-867_i32, %alloc_2[0, 7] : memref<1x16xi32>
    affine.store %c571_i32, %alloc_2[0, 8] : memref<1x16xi32>
    affine.store %c581_i32, %alloc_2[0, 9] : memref<1x16xi32>
    affine.store %c4260_i32, %alloc_2[0, 10] : memref<1x16xi32>
    affine.store %c3943_i32, %alloc_2[0, 11] : memref<1x16xi32>
    affine.store %c591_i32, %alloc_2[0, 12] : memref<1x16xi32>
    affine.store %c0_i32, %alloc_2[0, 13] : memref<1x16xi32>
    affine.store %c-889_i32, %alloc_2[0, 14] : memref<1x16xi32>
    affine.store %c-5103_i32, %alloc_2[0, 15] : memref<1x16xi32>
    %44 = arith.muli %0, %c108_i32 : i32
    %45 = arith.addi %44, %c-729_i32 : i32
    affine.store %45, %alloc_2[0, 0] : memref<1x16xi32>
    %46 = arith.muli %2, %c-1404_i32 : i32
    %47 = arith.addi %45, %46 : i32
    affine.store %47, %alloc_2[0, 0] : memref<1x16xi32>
    %48 = arith.muli %6, %c-19_i32 : i32
    %49 = arith.addi %47, %48 : i32
    affine.store %49, %alloc_2[0, 0] : memref<1x16xi32>
    %50 = arith.muli %9, %c9_i32 : i32
    %51 = arith.addi %49, %50 : i32
    affine.store %51, %alloc_2[0, 0] : memref<1x16xi32>
    %52 = arith.muli %12, %c25_i32 : i32
    %53 = arith.addi %51, %52 : i32
    affine.store %53, %alloc_2[0, 0] : memref<1x16xi32>
    %54 = arith.muli %15, %c33_i32 : i32
    %55 = arith.addi %53, %54 : i32
    affine.store %55, %alloc_2[0, 0] : memref<1x16xi32>
    %56 = arith.muli %18, %c-12_i32 : i32
    %57 = arith.addi %55, %56 : i32
    affine.store %57, %alloc_2[0, 0] : memref<1x16xi32>
    %58 = arith.muli %21, %c36_i32 : i32
    %59 = arith.addi %57, %58 : i32
    affine.store %59, %alloc_2[0, 0] : memref<1x16xi32>
    %60 = arith.muli %24, %c-32_i32 : i32
    %61 = arith.addi %59, %60 : i32
    affine.store %61, %alloc_2[0, 0] : memref<1x16xi32>
    %62 = arith.muli %25, %c-858_i32 : i32
    %63 = arith.addi %61, %62 : i32
    affine.store %63, %alloc_2[0, 0] : memref<1x16xi32>
    %64 = arith.muli %29, %c-17_i32 : i32
    %65 = arith.addi %63, %64 : i32
    affine.store %65, %alloc_2[0, 0] : memref<1x16xi32>
    %66 = arith.muli %32, %c-68_i32 : i32
    %67 = arith.addi %65, %66 : i32
    affine.store %67, %alloc_2[0, 0] : memref<1x16xi32>
    %68 = arith.muli %33, %c738_i32 : i32
    %69 = arith.addi %67, %68 : i32
    affine.store %69, %alloc_2[0, 0] : memref<1x16xi32>
    %70 = arith.muli %37, %c-11_i32 : i32
    %71 = arith.addi %69, %70 : i32
    affine.store %71, %alloc_2[0, 0] : memref<1x16xi32>
    %72 = arith.muli %40, %c-6_i32 : i32
    %73 = arith.addi %71, %72 : i32
    affine.store %73, %alloc_2[0, 0] : memref<1x16xi32>
    %74 = arith.muli %43, %c25_i32 : i32
    %75 = arith.addi %73, %74 : i32
    affine.store %75, %alloc_2[0, 0] : memref<1x16xi32>
    %76 = arith.muli %0, %c-27_i32 : i32
    %77 = arith.addi %76, %c1954_i32 : i32
    affine.store %77, %alloc_2[0, 1] : memref<1x16xi32>
    %78 = arith.muli %2, %c1944_i32 : i32
    %79 = arith.addi %77, %78 : i32
    affine.store %79, %alloc_2[0, 1] : memref<1x16xi32>
    %80 = arith.muli %6, %c-46_i32 : i32
    %81 = arith.addi %79, %80 : i32
    affine.store %81, %alloc_2[0, 1] : memref<1x16xi32>
    %82 = arith.muli %9, %c2_i32 : i32
    %83 = arith.addi %81, %82 : i32
    affine.store %83, %alloc_2[0, 1] : memref<1x16xi32>
    %84 = arith.muli %12, %c6_i32 : i32
    %85 = arith.addi %83, %84 : i32
    affine.store %85, %alloc_2[0, 1] : memref<1x16xi32>
    %86 = arith.muli %15, %c-7_i32 : i32
    %87 = arith.addi %85, %86 : i32
    affine.store %87, al%loc_2[0, 1] : memref<1x16xi32>
    %88 = arith.addi %87, %56 : i32
    affine.store %88, %alloc_2[0, 1] : memref<1x16xi32>
    %89 = arith.muli %21, %c2_i32 : i32
    %90 = arith.addi %88, %89 : i32
    affine.store %90, %alloc_2[0, 1] : memref<1x16xi32>
    %91 = arith.subi %90, %24 : i32
    affine.store %91, %alloc_2[0, 1] : memref<1x16xi32>
    %92 = arith.muli %25, %c156_i32 : i32
    %93 = arith.addi %91, %92 : i32
    affine.store %93, %alloc_2[0, 1] : memref<1x16xi32>
    %94 = arith.addi %93, %64 : i32
    affine.store %94, %alloc_2[0, 1] : memref<1x16xi32>
    %95 = arith.muli %32, %c-15_i32 : i32
    %96 = arith.addi %94, %95 : i32
    affine.store %96, %alloc_2[0, 1] : memref<1x16xi32>
    %97 = arith.muli %33, %c1394_i32 : i32
    %98 = arith.addi %96, %97 : i32
    affine.store %98, %alloc_2[0, 1] : memref<1x16xi32>
    %99 = arith.muli %37, %c-45_i32 : i32
    %100 = arith.addi %98, %99 : i32
    affine.store %100, %alloc_2[0, 1] : memref<1x16xi32>
    %101 = arith.muli %40, %c39_i32 : i32
    %102 = arith.addi %100, %101 : i32
    affine.store %102, %alloc_2[0, 1] : memref<1x16xi32>
    %103 = arith.muli %43, %c-31_i32 : i32
    %104 = arith.addi %102, %103 : i32
    affine.store %104, %alloc_2[0, 1] : memref<1x16xi32>
    %105 = arith.muli %0, %c45_i32 : i32
    %106 = arith.addi %105, %c610_i32 : i32
    affine.store %106, %alloc_2[0, 2] : memref<1x16xi32>
    %107 = arith.muli %2, %c-2106_i32 : i32
    %108 = arith.addi %106, %107 : i32
    affine.store %108, %alloc_2[0, 2] : memref<1x16xi32>
    %109 = arith.muli %6, %c-35_i32 : i32
    %110 = arith.addi %108, %109 : i32
    affine.store %110, %alloc_2[0, 2] : memref<1x16xi32>
    %111 = arith.muli %9, %c-21_i32 : i32
    %112 = arith.addi %110, %111 : i32
    affine.store %112, %alloc_2[0, 2] : memref<1x16xi32>
    %113 = arith.muli %12, %c-37_i32 : i32
    %114 = arith.addi %112, %113 : i32
    affine.store %114, %alloc_2[0, 2] : memref<1x16xi32>
    %115 = arith.muli %15, %c-28_i32 : i32
    %116 = arith.addi %114, %115 : i32
    affine.store %116, %alloc_2[0, 2] : memref<1x16xi32>
    %117 = arith.muli %18, %c5_i32 : i32
    %118 = arith.addi %116, %117 : i32
    affine.store %118, %alloc_2[0, 2] : memref<1x16xi32>
    %119 = arith.muli %21, %c26_i32 : i32
    %120 = arith.addi %118, %119 : i32
    affine.store %120, %alloc_2[0, 2] : memref<1x16xi32>
    %121 = arith.muli %24, %c23_i32 : i32
    %122 = arith.addi %120, %121 : i32
    affine.store %122, %alloc_2[0, 2] : memref<1x16xi32>
    %123 = arith.muli %25, %c104_i32 : i32
    %124 = arith.addi %122, %123 : i32
    affine.store %124, %alloc_2[0, 2] : memref<1x16xi32>
    %125 = arith.muli %29, %c36_i32 : i32
    %126 = arith.addi %124, %125 : i32
    affine.store %126, %alloc_2[0, 2] : memref<1x16xi32>
    %127 = arith.muli %32, %c18_i32 : i32
    %128 = arith.addi %126, %127 : i32
    affine.store %128, %alloc_2[0, 2] : memref<1x16xi32>
    %129 = arith.muli %33, %c-1722_i32 : i32
    %130 = arith.addi %128, %129 : i32
    affine.store %130, %alloc_2[0, 2] : memref<1x16xi32>
    %131 = arith.muli %37, %c-17_i32 : i32
    %132 = arith.addi %130, %131 : i32
    affine.store %132, %alloc_2[0, 2] : memref<1x16xi32>
    %133 = arith.muli %40, %c30_i32 : i32
    %134 = arith.addi %132, %133 : i32
    affine.store %134, %alloc_2[0, 2] : memref<1x16xi32>
    %135 = arith.muli %43, %c-28_i32 : i32
    %136 = arith.addi %134, %135 : i32
    affine.store %136, %alloc_2[0, 2] : memref<1x16xi32>
    %137 = arith.muli %0, %c-144_i32 : i32
    affine.store %137, %alloc_2[0, 3] : memref<1x16xi32>
    %138 = arith.muli %2, %c108_i32 : i32
    %139 = arith.addi %137, %138 : i32
    affine.store %139, %alloc_2[0, 3] : memref<1x16xi32>
    %140 = arith.muli %6, %c20_i32 : i32
    %141 = arith.addi %139, %140 : i32
    affine.store %141, %alloc_2[0, 3] : memref<1x16xi32>
    %142 = arith.muli %9, %c-38_i32 : i32
    %143 = arith.addi %141, %142 : i32
    affine.store %143, %alloc_2[0, 3] : memref<1x16xi32>
    %144 = arith.muli %12, %c28_i32 : i32
    %145 = arith.addi %143, %144 : i32
    affine.store %145, %alloc_2[0, 3] : memref<1x16xi32>
    %146 = arith.muli %15, %c-8_i32 : i32
    %147 = arith.addi %145, %146 : i32
    affine.store %147, %alloc_2[0, 3] : memref<1x16xi32>
    %148 = arith.muli %18, %c-13_i32 : i32
    %149 = arith.addi %147, %148 : i32
    affine.store %149, %alloc_2[0, 3] : memref<1x16xi32>
    %150 = arith.muli %21, %c-15_i32 : i32
    %151 = arith.addi %149, %150 : i32
    affine.store %151, %alloc_2[0, 3] : memref<1x16xi32>
    %152 = arith.muli %24, %c-17_i32 : i32
    %153 = arith.addi %151, %152 : i32
    affine.store %153, %alloc_2[0, 3] : memref<1x16xi32>
    %154 = arith.muli %25, %c780_i32 : i32
    %155 = arith.addi %153, %154 : i32
    affine.store %155, %alloc_2[0, 3] : memref<1x16xi32>
    %156 = arith.muli %29, %c-13_i32 : i32
    %157 = arith.addi %155, %156 : i32
    affine.store %157, %alloc_2[0, 3] : memref<1x16xi32>
    %158 = arith.muli %32, %c9_i32 : i32
    %159 = arith.addi %157, %158 : i32
    affine.store %159, %alloc_2[0, 3] : memref<1x16xi32>
    %160 = arith.muli %33, %c2378_i32 : i32
    %161 = arith.addi %159, %160 : i32
    affine.store %161, %alloc_2[0, 3] : memref<1x16xi32>
    %162 = arith.muli %37, %c-23_i32 : i32
    %163 = arith.addi %161, %162 : i32
    affine.store %163, %alloc_2[0, 3] : memref<1x16xi32>
    %164 = arith.muli %40, %c-19_i32 : i32
    %165 = arith.addi %163, %164 : i32
    affine.store %165, %alloc_2[0, 3] : memref<1x16xi32>
    %166 = arith.muli %43, %c-29_i32 : i32
    %167 = arith.addi %165, %166 : i32
    affine.store %167, %alloc_2[0, 3] : memref<1x16xi32>
    %168 = arith.muli %0, %c252_i32 : i32
    %169 = arith.addi %168, %c241_i32 : i32
    affine.store %169, %alloc_2[0, 4] : memref<1x16xi32>
    %170 = arith.muli %2, %c-1134_i32 : i32
    %171 = arith.addi %169, %170 : i32
    affine.store %171, %alloc_2[0, 4] : memref<1x16xi32>
    %172 = arith.muli %6, %c7_i32 : i32
    %173 = arith.addi %171, %172 : i32
    affine.store %173, %alloc_2[0, 4] : memref<1x16xi32>
    %174 = arith.muli %9, %c11_i32 : i32
    %175 = arith.addi %173, %174 : i32
    affine.store %175, %alloc_2[0, 4] : memref<1x16xi32>
    %176 = arith.muli %12, %c4_i32 : i32
    %177 = arith.addi %175, %176 : i32
    affine.store %177, %alloc_2[0, 4] : memref<1x16xi32>
    %178 = arith.muli %15, %c27_i32 : i32
    %179 = arith.addi %177, %178 : i32
    affine.store %179, %alloc_2[0, 4] : memref<1x16xi32>
    %180 = arith.muli %18, %c26_i32 : i32
    %181 = arith.addi %179, %180 : i32
    affine.store %181, %alloc_2[0, 4] : memref<1x16xi32>
    %182 = arith.muli %21, %c-2_i32 : i32
    %183 = arith.addi %181, %182 : i32
    affine.store %183, %alloc_2[0, 4] : memref<1x16xi32>
    %184 = arith.muli %24, %c-21_i32 : i32
    %185 = arith.addi %183, %184 : i32
    affine.store %185, %alloc_2[0, 4] : memref<1x16xi32>
    %186 = arith.addi %185, %26 : i32
    affine.store %186, %alloc_2[0, 4] : memref<1x16xi32>
    %187 = arith.muli %29, %c-34_i32 : i32
    %188 = arith.addi %186, %187 : i32
    affine.store %188, %alloc_2[0, 4] : memref<1x16xi32>
    %189 = arith.muli %32, %c33_i32 : i32
    %190 = arith.addi %188, %189 : i32
    affine.store %190, %alloc_2[0, 4] : memref<1x16xi32>
    %191 = arith.muli %33, %c2132_i32 : i32
    %192 = arith.addi %190, %191 : i32
    affine.store %192, %alloc_2[0, 4] : memref<1x16xi32>
    %193 = arith.muli %37, %c11_i32 : i32
    %194 = arith.addi %192, %193 : i32
    affine.store %194, %alloc_2[0, 4] : memref<1x16xi32>
    %195 = arith.muli %40, %c-20_i32 : i32
    %196 = arith.addi %194, %195 : i32
    affine.store %196, %alloc_2[0, 4] : memref<1x16xi32>
    %197 = arith.muli %43, %c3_i32 : i32
    %198 = arith.addi %196, %197 : i32
    affine.store %198, %alloc_2[0, 4] : memref<1x16xi32>
    %199 = arith.muli %0, %c-315_i32 : i32
    %200 = arith.addi %199, %c-471_i32 : i32
    affine.store %200, %alloc_2[0, 5] : memref<1x16xi32>
    %201 = arith.muli %2, %c-540_i32 : i32
    %202 = arith.addi %200, %201 : i32
    affine.store %202, %alloc_2[0, 5] : memref<1x16xi32>
    %203 = arith.muli %6, %c34_i32 : i32
    %204 = arith.addi %202, %203 : i32
    affine.store %204, %alloc_2[0, 5] : memref<1x16xi32>
    %205 = arith.muli %9, %c36_i32 : i32
    %206 = arith.addi %204, %205 : i32
    affine.store %206, %alloc_2[0, 5] : memref<1x16xi32>
    %207 = arith.muli %12, %c30_i32 : i32
    %208 = arith.addi %206, %207 : i32
    affine.store %208, %alloc_2[0, 5] : memref<1x16xi32>
    %209 = arith.muli %15, %c39_i32 : i32
    %210 = arith.addi %208, %209 : i32
    affine.store %210, %alloc_2[0, 5] : memref<1x16xi32>
    %211 = arith.muli %18, %c3_i32 : i32
    %212 = arith.addi %210, %211 : i32
    affine.store %212, %alloc_2[0, 5] : memref<1x16xi32>
    %213 = arith.muli %21, %c-26_i32 : i32
    %214 = arith.addi %212, %213 : i32
    affine.store %214, %alloc_2[0, 5] : memref<1x16xi32>
    %215 = arith.muli %24, %c3_i32 : i32
    %216 = arith.addi %214, %215 : i32
    affine.store %216, %alloc_2[0, 5] : memref<1x16xi32>
    %217 = arith.muli %25, %c-936_i32 : i32
    %218 = arith.addi %216, %217 : i32
    affine.store %218, %alloc_2[0, 5] : memref<1x16xi32>
    %219 = arith.subi %218, %29 : i32
    affine.store %219, %alloc_2[0, 5] : memref<1x16xi32>
    %220 = arith.muli %32, %c-64_i32 : i32
    %221 = arith.addi %219, %220 : i32
    affine.store %221, %alloc_2[0, 5] : memref<1x16xi32>
    %222 = arith.muli %33, %c-1394_i32 : i32
    %223 = arith.addi %221, %222 : i32
    affine.store %223, %alloc_2[0, 5] : memref<1x16xi32>
    %224 = arith.muli %37, %c-8_i32 : i32
    %225 = arith.addi %223, %224 : i32
    affine.store %225, %alloc_2[0, 5] : memref<1x16xi32>
    %226 = arith.muli %40, %c-4_i32 : i32
    %227 = arith.addi %225, %226 : i32
    affine.store %227, %alloc_2[0, 5] : memref<1x16xi32>
    %228 = arith.muli %43, %c-15_i32 : i32
    %229 = arith.addi %227, %228 : i32
    affine.store %229, %alloc_2[0, 5] : memref<1x16xi32>
    %230 = arith.muli %0, %c-153_i32 : i32
    %231 = arith.addi %230, %c-35_i32 : i32
    affine.store %231, %alloc_2[0, 6] : memref<1x16xi32>
    %232 = arith.muli %2, %c-648_i32 : i32
    %233 = arith.addi %231, %232 : i32
    affine.store %233, %alloc_2[0, 6] : memref<1x16xi32>
    %234 = arith.muli %6, %c-11_i32 : i32
    %235 = arith.addi %233, %234 : i32
    affine.store %235, %alloc_2[0, 6] : memref<1x16xi32>
    %236 = arith.muli %9, %c-32_i32 : i32
    %237 = arith.addi %235, %236 : i32
    affine.store %237, %alloc_2[0, 6] : memref<1x16xi32>
    %238 = arith.muli %12, %c-13_i32 : i32
    %239 = arith.addi %237, %238 : i32
    affine.store %239, %alloc_2[0, 6] : memref<1x16xi32>
    %240 = arith.muli %15, %c7_i32 : i32
    %241 = arith.addi %239, %240 : i32
    affine.store %241, %alloc_2[0, 6] : memref<1x16xi32>
    %242 = arith.muli %18, %c23_i32 : i32
    %243 = arith.addi %241, %242 : i32
    affine.store %243, %alloc_2[0, 6] : memref<1x16xi32>
    %244 = arith.muli %21, %c-27_i32 : i32
    %245 = arith.addi %243, %244 : i32
    affine.store %245, %alloc_2[0, 6] : memref<1x16xi32>
    %246 = arith.muli %24, %c-24_i32 : i32
    %247 = arith.addi %245, %246 : i32
    affine.store %247, %alloc_2[0, 6] : memref<1x16xi32>
    %248 = arith.muli %25, %c494_i32 : i32
    %249 = arith.addi %247, %248 : i32
    affine.store %249, %alloc_2[0, 6] : memref<1x16xi32>
    %250 = arith.muli %29, %c-6_i32 : i32
    %251 = arith.addi %249, %250 : i32
    affine.store %251, %alloc_2[0, 6] : memref<1x16xi32>
    %252 = arith.muli %32, %c-36_i32 : i32
    %253 = arith.addi %251, %252 : i32
    affine.store %253, %alloc_2[0, 6] : memref<1x16xi32>
    %254 = arith.muli %33, %c1968_i32 : i32
    %255 = arith.addi %253, %254 : i32
    affine.store %255, %alloc_2[0, 6] : memref<1x16xi32>
    %256 = arith.muli %37, %c35_i32 : i32
    %257 = arith.addi %255, %256 : i32
    affine.store %257, %alloc_2[0, 6] : memref<1x16xi32>
    %258 = arith.muli %40, %c-5_i32 : i32
    %259 = arith.addi %257, %258 : i32
    affine.store %259, %alloc_2[0, 6] : memref<1x16xi32>
    %260 = arith.muli %43, %c7_i32 : i32
    %261 = arith.addi %259, %260 : i32
    affine.store %261, %alloc_2[0, 6] : memref<1x16xi32>
    %262 = arith.muli %0, %c315_i32 : i32
    %263 = arith.addi %262, %c-867_i32 : i32
    affine.store %263, %alloc_2[0, 7] : memref<1x16xi32>
    %264 = arith.muli %2, %c270_i32 : i32
    %265 = arith.addi %263, %264 : i32
    affine.store %265, %alloc_2[0, 7] : memref<1x16xi32>
    %266 = arith.muli %6, %c-3_i32 : i32
    %267 = arith.addi %265, %266 : i32
    affine.store %267, %alloc_2[0, 7] : memref<1x16xi32>
    affine.store %267, %alloc_2[0, 7] : memref<1x16xi32>
    %268 = arith.muli %12, %c20_i32 : i32
    %269 = arith.addi %267, %268 : i32
    affine.store %269, %alloc_2[0, 7] : memref<1x16xi32>
    %270 = arith.muli %15, %c38_i32 : i32
    %271 = arith.addi %269, %270 : i32
    affine.store %271, %alloc_2[0, 7] : memref<1x16xi32>
    %272 = arith.muli %18, %c17_i32 : i32
    %273 = arith.addi %271, %272 : i32
    affine.store %273, %alloc_2[0, 7] : memref<1x16xi32>
    %274 = arith.muli %21, %c23_i32 : i32
    %275 = arith.addi %273, %274 : i32
    affine.store %275, %alloc_2[0, 7] : memref<1x16xi32>
    %276 = arith.muli %24, %c-25_i32 : i32
    %277 = arith.addi %275, %276 : i32
    affine.store %277, %alloc_2[0, 7] : memref<1x16xi32>
    %278 = arith.muli %25, %c390_i32 : i32
    %279 = arith.addi %277, %278 : i32
    affine.store %279, %alloc_2[0, 7] : memref<1x16xi32>
    %280 = arith.muli %29, %c17_i32 : i32
    %281 = arith.addi %279, %280 : i32
    affine.store %281, %alloc_2[0, 7] : memref<1x16xi32>
    %282 = arith.muli %32, %c-22_i32 : i32
    %283 = arith.addi %281, %282 : i32
    affine.store %283, %alloc_2[0, 7] : memref<1x16xi32>
    %284 = arith.muli %33, %c-164_i32 : i32
    %285 = arith.addi %283, %284 : i32
    affine.store %285, %alloc_2[0, 7] : memref<1x16xi32>
    %286 = arith.muli %37, %c38_i32 : i32
    %287 = arith.addi %285, %286 : i32
    affine.store %287, %alloc_2[0, 7] : memref<1x16xi32>
    %288 = arith.muli %40, %c4_i32 : i32
    %289 = arith.addi %287, %288 : i32
    affine.store %289, %alloc_2[0, 7] : memref<1x16xi32>
    %290 = arith.muli %43, %c4_i32 : i32
    %291 = arith.addi %289, %290 : i32
    affine.store %291, %alloc_2[0, 7] : memref<1x16xi32>
    %292 = arith.muli %0, %c-333_i32 : i32
    %293 = arith.addi %292, %c571_i32 : i32
    affine.store %293, %alloc_2[0, 8] : memref<1x16xi32>
    %294 = arith.muli %2, %c-1782_i32 : i32
    %295 = arith.addi %293, %294 : i32
    affine.store %295, %alloc_2[0, 8] : memref<1x16xi32>
    %296 = arith.muli %6, %c29_i32 : i32
    %297 = arith.addi %295, %296 : i32
    affine.store %297, %alloc_2[0, 8] : memref<1x16xi32>
    %298 = arith.muli %9, %c10_i32 : i32
    %299 = arith.addi %297, %298 : i32
    affine.store %299, %alloc_2[0, 8] : memref<1x16xi32>
    %300 = arith.addi %299, %113 : i32
    affine.store %300, %alloc_2[0, 8] : memref<1x16xi32>
    %301 = arith.muli %15, %c29_i32 : i32
    %302 = arith.addi %300, %301 : i32
    affine.store %302, %alloc_2[0, 8] : memref<1x16xi32>
    %303 = arith.muli %18, %c-36_i32 : i32
    %304 = arith.addi %302, %303 : i32
    affine.store %304, %alloc_2[0, 8] : memref<1x16xi32>
    %305 = arith.muli %21, %c32_i32 : i32
    %306 = arith.addi %304, %305 : i32
    affine.store %306, %alloc_2[0, 8] : memref<1x16xi32>
    %307 = arith.addi %306, %24 : i32
    affine.store %307, %alloc_2[0, 8] : memref<1x16xi32>
    %308 = arith.addi %307, %92 : i32
    affine.store %308, %alloc_2[0, 8] : memref<1x16xi32>
    %309 = arith.muli %29, %c-29_i32 : i32
    %310 = arith.addi %308, %309 : i32
    affine.store %310, %alloc_2[0, 8] : memref<1x16xi32>
    %311 = arith.muli %32, %c55_i32 : i32
    %312 = arith.addi %310, %311 : i32
    affine.store %312, %alloc_2[0, 8] : memref<1x16xi32>
    %313 = arith.muli %33, %c-902_i32 : i32
    %314 = arith.addi %312, %313 : i32
    affine.store %314, %alloc_2[0, 8] : memref<1x16xi32>
    %315 = arith.muli %37, %c-15_i32 : i32
    %316 = arith.addi %314, %315 : i32
    affine.store %316, %alloc_2[0, 8] : memref<1x16xi32>
    %317 = arith.muli %40, %c26_i32 : i32
    %318 = arith.addi %316, %317 : i32
    affine.store %318, %alloc_2[0, 8] : memref<1x16xi32>
    %319 = arith.muli %43, %c22_i32 : i32
    %320 = arith.addi %318, %319 : i32
    affine.store %320, %alloc_2[0, 8] : memref<1x16xi32>
    %321 = arith.muli %0, %c153_i32 : i32
    %322 = arith.addi %321, %c581_i32 : i32
    affine.store %322, %alloc_2[0, 9] : memref<1x16xi32>
    %323 = arith.muli %2, %c-1512_i32 : i32
    %324 = arith.addi %322, %323 : i32
    affine.store %324, %alloc_2[0, 9] : memref<1x16xi32>
    %325 = arith.muli %6, %c-25_i32 : i32
    %326 = arith.addi %324, %325 : i32
    affine.store %326, %alloc_2[0, 9] : memref<1x16xi32>
    %327 = arith.muli %9, %c3_i32 : i32
    %328 = arith.addi %326, %327 : i32
    affine.store %328, %alloc_2[0, 9] : memref<1x16xi32>
    %329 = arith.muli %12, %c-32_i32 : i32
    %330 = arith.addi %328, %329 : i32
    affine.store %330, %alloc_2[0, 9] : memref<1x16xi32>
    %331 = arith.muli %15, %c22_i32 : i32
    %332 = arith.addi %330, %331 : i32
    affine.store %332, %alloc_2[0, 9] : memref<1x16xi32>
    %333 = arith.muli %18, %c2_i32 : i32
    %334 = arith.addi %332, %333 : i32
    affine.store %334, %alloc_2[0, 9] : memref<1x16xi32>
    %335 = arith.muli %21, %c3_i32 : i32
    %336 = arith.addi %334, %335 : i32
    affine.store %336, %alloc_2[0, 9] : memref<1x16xi32>
    %337 = arith.muli %24, %c33_i32 : i32
    %338 = arith.addi %336, %337 : i32
    affine.store %338, %alloc_2[0, 9] : memref<1x16xi32>
    %339 = arith.muli %25, %c-624_i32 : i32
    %340 = arith.addi %338, %339 : i32
    affine.store %340, %alloc_2[0, 9] : memref<1x16xi32>
    %341 = arith.muli %29, %c9_i32 : i32
    %342 = arith.addi %340, %341 : i32
    affine.store %342, %alloc_2[0, 9] : memref<1x16xi32>
    %343 = arith.muli %32, %c46_i32 : i32
    %344 = arith.addi %342, %343 : i32
    affine.store %344, %alloc_2[0, 9] : memref<1x16xi32>
    %345 = arith.muli %33, %c3198_i32 : i32
    %346 = arith.addi %344, %345 : i32
    affine.store %346, %alloc_2[0, 9] : memref<1x16xi32>
    %347 = arith.muli %37, %c-27_i32 : i32
    %348 = arith.addi %346, %347 : i32
    affine.store %348, %alloc_2[0, 9] : memref<1x16xi32>
    %349 = arith.muli %40, %c20_i32 : i32
    %350 = arith.addi %348, %349 : i32
    affine.store %350, %alloc_2[0, 9] : memref<1x16xi32>
    %351 = arith.muli %43, %c11_i32 : i32
    %352 = arith.addi %350, %351 : i32
    affine.store %352, %alloc_2[0, 9] : memref<1x16xi32>
    %353 = arith.muli %0, %c198_i32 : i32
    %354 = arith.addi %353, %c4260_i32 : i32
    affine.store %354, %alloc_2[0, 10] : memref<1x16xi32>
    %355 = arith.addi %354, %46 : i32
    affine.store %355, %alloc_2[0, 10] : memref<1x16xi32>
    %356 = arith.muli %6, %c-4_i32 : i32
    %357 = arith.addi %355, %356 : i32
    affine.store %357, %alloc_2[0, 10] : memref<1x16xi32>
    %358 = arith.muli %9, %c-40_i32 : i32
    %359 = arith.addi %357, %358 : i32
    affine.store %359, %alloc_2[0, 10] : memref<1x16xi32>
    %360 = arith.muli %12, %c19_i32 : i32
    %361 = arith.addi %359, %360 : i32
    affine.store %361, %alloc_2[0, 10] : memref<1x16xi32>
    affine.store %361, %alloc_2[0, 10] : memref<1x16xi32>
    %362 = arith.muli %18, %c-60_i32 : i32
    %363 = arith.addi %361, %362 : i32
    affine.store %363, %alloc_2[0, 10] : memref<1x16xi32>
    %364 = arith.muli %21, %c-40_i32 : i32
    %365 = arith.addi %363, %364 : i32
    affine.store %365, %alloc_2[0, 10] : memref<1x16xi32>
    %366 = arith.muli %24, %c-20_i32 : i32
    %367 = arith.addi %365, %366 : i32
    affine.store %367, %alloc_2[0, 10] : memref<1x16xi32>
    %368 = arith.muli %25, %c1014_i32 : i32
    %369 = arith.addi %367, %368 : i32
    affine.store %369, %alloc_2[0, 10] : memref<1x16xi32>
    %370 = arith.muli %29, %c-2_i32 : i32
    %371 = arith.addi %369, %370 : i32
    affine.store %371, %alloc_2[0, 10] : memref<1x16xi32>
    %372 = arith.muli %32, %c13_i32 : i32
    %373 = arith.addi %371, %372 : i32
    affine.store %373, %alloc_2[0, 10] : memref<1x16xi32>
    %374 = arith.muli %33, %c-2050_i32 : i32
    %375 = arith.addi %373, %374 : i32
    affine.store %375, %alloc_2[0, 10] : memref<1x16xi32>
    %376 = arith.muli %37, %c32_i32 : i32
    %377 = arith.addi %375, %376 : i32
    affine.store %377, %alloc_2[0, 10] : memref<1x16xi32>
    %378 = arith.muli %40, %c-40_i32 : i32
    %379 = arith.addi %377, %378 : i32
    affine.store %379, %alloc_2[0, 10] : memref<1x16xi32>
    %380 = arith.muli %43, %c-42_i32 : i32
    %381 = arith.addi %379, %380 : i32
    affine.store %381, %alloc_2[0, 10] : memref<1x16xi32>
    %382 = arith.muli %0, %c270_i32 : i32
    %383 = arith.addi %382, %c3943_i32 : i32
    affine.store %383, %alloc_2[0, 11] : memref<1x16xi32>
    %384 = arith.muli %2, %c-1674_i32 : i32
    %385 = arith.addi %383, %384 : i32
    affine.store %385, %alloc_2[0, 11] : memref<1x16xi32>
    %386 = arith.muli %6, %c-23_i32 : i32
    %387 = arith.addi %385, %386 : i32
    affine.store %387, %alloc_2[0, 11] : memref<1x16xi32>
    %388 = arith.muli %9, %c-41_i32 : i32
    %389 = arith.addi %387, %388 : i32
    affine.store %389, %alloc_2[0, 11] : memref<1x16xi32>
    %390 = arith.muli %12, %c-54_i32 : i32
    %391 = arith.addi %389, %390 : i32
    affine.store %391, %alloc_2[0, 11] : memref<1x16xi32>
    %392 = arith.muli %15, %c-30_i32 : i32
    %393 = arith.addi %391, %392 : i32
    affine.store %393, %alloc_2[0, 11] : memref<1x16xi32>
    %394 = arith.muli %18, %c-35_i32 : i32
    %395 = arith.addi %393, %394 : i32
    affine.store %395, %alloc_2[0, 11] : memref<1x16xi32>
    %396 = arith.muli %21, %c-58_i32 : i32
    %397 = arith.addi %395, %396 : i32
    affine.store %397, %alloc_2[0, 11] : memref<1x16xi32>
    %398 = arith.muli %24, %c19_i32 : i32
    %399 = arith.addi %397, %398 : i32
    affine.store %399, %alloc_2[0, 11] : memref<1x16xi32>
    %400 = arith.muli %25, %c650_i32 : i32
    %401 = arith.addi %399, %400 : i32
    affine.store %401, %alloc_2[0, 11] : memref<1x16xi32>
    %402 = arith.muli %29, %c4_i32 : i32
    %403 = arith.addi %401, %402 : i32
    affine.store %403, %alloc_2[0, 11] : memref<1x16xi32>
    %404 = arith.muli %32, %c62_i32 : i32
    %405 = arith.addi %403, %404 : i32
    affine.store %405, %alloc_2[0, 11] : memref<1x16xi32>
    affine.store %405, %alloc_2[0, 11] : memref<1x16xi32>
    %406 = arith.addi %405, %37 : i32
    affine.store %406, %alloc_2[0, 11] : memref<1x16xi32>
    %407 = arith.addi %406, %349 : i32
    affine.store %407, %alloc_2[0, 11] : memref<1x16xi32>
    %408 = arith.muli %43, %c-57_i32 : i32
    %409 = arith.addi %407, %408 : i32
    affine.store %409, %alloc_2[0, 11] : memref<1x16xi32>
    %410 = arith.muli %0, %c333_i32 : i32
    %411 = arith.addi %410, %c591_i32 : i32
    affine.store %411, %alloc_2[0, 12] : memref<1x16xi32>
    %412 = arith.muli %2, %c1350_i32 : i32
    %413 = arith.addi %411, %412 : i32
    affine.store %413, %alloc_2[0, 12] : memref<1x16xi32>
    %414 = arith.muli %6, %c21_i32 : i32
    %415 = arith.addi %413, %414 : i32
    affine.store %415, %alloc_2[0, 12] : memref<1x16xi32>
    %416 = arith.muli %9, %c21_i32 : i32
    %417 = arith.addi %415, %416 : i32
    affine.store %417, %alloc_2[0, 12] : memref<1x16xi32>
    %418 = arith.muli %12, %c-11_i32 : i32
    %419 = arith.addi %417, %418 : i32
    affine.store %419, %alloc_2[0, 12] : memref<1x16xi32>
    %420 = arith.muli %15, %c6_i32 : i32
    %421 = arith.addi %419, %420 : i32
    affine.store %421, %alloc_2[0, 12] : memref<1x16xi32>
    %422 = arith.muli %18, %c-42_i32 : i32
    %423 = arith.addi %421, %422 : i32
    affine.store %423, %alloc_2[0, 12] : memref<1x16xi32>
    %424 = arith.addi %423, %119 : i32
    affine.store %424, %alloc_2[0, 12] : memref<1x16xi32>
    %425 = arith.muli %24, %c-36_i32 : i32
    %426 = arith.addi %424, %425 : i32
    affine.store %426, %alloc_2[0, 12] : memref<1x16xi32>
    %427 = arith.muli %25, %c-234_i32 : i32
    %428 = arith.addi %426, %427 : i32
    affine.store %428, %alloc_2[0, 12] : memref<1x16xi32>
    %429 = arith.muli %29, %c34_i32 : i32
    %430 = arith.addi %428, %429 : i32
    affine.store %430, %alloc_2[0, 12] : memref<1x16xi32>
    %431 = arith.muli %32, %c-2_i32 : i32
    %432 = arith.addi %430, %431 : i32
    affine.store %432, %alloc_2[0, 12] : memref<1x16xi32>
    %433 = arith.muli %33, %c-656_i32 : i32
    %434 = arith.addi %432, %433 : i32
    affine.store %434, %alloc_2[0, 12] : memref<1x16xi32>
    %435 = arith.muli %37, %c2_i32 : i32
    %436 = arith.addi %434, %435 : i32
    affine.store %436, %alloc_2[0, 12] : memref<1x16xi32>
    %437 = arith.muli %40, %c19_i32 : i32
    %438 = arith.addi %436, %437 : i32
    affine.store %438, %alloc_2[0, 12] : memref<1x16xi32>
    %439 = arith.muli %43, %c-17_i32 : i32
    %440 = arith.addi %438, %439 : i32
    affine.store %440, %alloc_2[0, 12] : memref<1x16xi32>
    %441 = arith.muli %0, %c-225_i32 : i32
    affine.store %441, %alloc_2[0, 13] : memref<1x16xi32>
    %442 = arith.muli %2, %c-1620_i32 : i32
    %443 = arith.addi %441, %442 : i32
    affine.store %443, %alloc_2[0, 13] : memref<1x16xi32>
    %444 = arith.muli %6, %c-30_i32 : i32
    %445 = arith.addi %443, %444 : i32
    affine.store %445, %alloc_2[0, 13] : memref<1x16xi32>
    %446 = arith.addi %445, %50 : i32
    affine.store %446, %alloc_2[0, 13] : memref<1x16xi32>
    %447 = arith.muli %12, %c-3_i32 : i32
    %448 = arith.addi %446, %447 : i32
    affine.store %448, %alloc_2[0, 13] : memref<1x16xi32>
    %449 = arith.muli %15, %c-13_i32 : i32
    %450 = arith.addi %448, %449 : i32
    affine.store %450, %alloc_2[0, 13] : memref<1x16xi32>
    %451 = arith.muli %18, %c20_i32 : i32
    %452 = arith.addi %450, %451 : i32
    affine.store %452, %alloc_2[0, 13] : memref<1x16xi32>
    %453 = arith.muli %21, %c-35_i32 : i32
    %454 = arith.addi %452, %453 : i32
    affine.store %454, %alloc_2[0, 13] : memref<1x16xi32>
    %455 = arith.muli %24, %c-38_i32 : i32
    %456 = arith.addi %454, %455 : i32
    affine.store %456, %alloc_2[0, 13] : memref<1x16xi32>
    %457 = arith.muli %25, %c-832_i32 : i32
    %458 = arith.addi %456, %457 : i32
    affine.store %458, %alloc_2[0, 13] : memref<1x16xi32>
    %459 = arith.muli %29, %c-39_i32 : i32
    %460 = arith.addi %458, %459 : i32
    affine.store %460, %alloc_2[0, 13] : memref<1x16xi32>
    %461 = arith.muli %32, %c15_i32 : i32
    %462 = arith.addi %460, %461 : i32
    affine.store %462, %alloc_2[0, 13] : memref<1x16xi32>
    %463 = arith.addi %462, %160 : i32
    affine.store %463, %alloc_2[0, 13] : memref<1x16xi32>
    %464 = arith.muli %37, %c-7_i32 : i32
    %465 = arith.addi %463, %464 : i32
    affine.store %465, %alloc_2[0, 13] : memref<1x16xi32>
    %466 = arith.muli %40, %c-9_i32 : i32
    %467 = arith.addi %465, %466 : i32
    affine.store %467, %alloc_2[0, 13] : memref<1x16xi32>
    %468 = arith.muli %43, %c-18_i32 : i32
    %469 = arith.addi %467, %468 : i32
    affine.store %469, %alloc_2[0, 13] : memref<1x16xi32>
    %470 = arith.muli %0, %c207_i32 : i32
    %471 = arith.addi %470, %c-889_i32 : i32
    affine.store %471, %alloc_2[0, 14] : memref<1x16xi32>
    %472 = arith.muli %2, %c-1944_i32 : i32
    %473 = arith.addi %471, %472 : i32
    affine.store %473, %alloc_2[0, 14] : memref<1x16xi32>
    %474 = arith.muli %6, %c-26_i32 : i32
    %475 = arith.addi %473, %474 : i32
    affine.store %475, %alloc_2[0, 14] : memref<1x16xi32>
    %476 = arith.muli %9, %c41_i32 : i32
    %477 = arith.addi %475, %476 : i32
    affine.store %477, %alloc_2[0, 14] : memref<1x16xi32>
    affine.store %477, %alloc_2[0, 14] : memref<1x16xi32>
    %478 = arith.addi %477, %240 : i32
    affine.store %478, %alloc_2[0, 14] : memref<1x16xi32>
    %479 = arith.muli %18, %c22_i32 : i32
    %480 = arith.addi %478, %479 : i32
    affine.store %480, %alloc_2[0, 14] : memref<1x16xi32>
    %481 = arith.muli %21, %c-30_i32 : i32
    %482 = arith.addi %480, %481 : i32
    affine.store %482, %alloc_2[0, 14] : memref<1x16xi32>
    %483 = arith.muli %24, %c30_i32 : i32
    %484 = arith.addi %482, %483 : i32
    affine.store %484, %alloc_2[0, 14] : memref<1x16xi32>
    %485 = arith.muli %25, %c-338_i32 : i32
    %486 = arith.addi %484, %485 : i32
    affine.store %486, %alloc_2[0, 14] : memref<1x16xi32>
    %487 = arith.muli %29, %c35_i32 : i32
    %488 = arith.addi %486, %487 : i32
    affine.store %488, %alloc_2[0, 14] : memref<1x16xi32>
    %489 = arith.muli %32, %c-45_i32 : i32
    %490 = arith.addi %488, %489 : i32
    affine.store %490, %alloc_2[0, 14] : memref<1x16xi32>
    %491 = arith.muli %33, %c2870_i32 : i32
    %492 = arith.addi %490, %491 : i32
    affine.store %492, %alloc_2[0, 14] : memref<1x16xi32>
    %493 = arith.muli %37, %c-9_i32 : i32
    %494 = arith.addi %492, %493 : i32
    affine.store %494, %alloc_2[0, 14] : memref<1x16xi32>
    %495 = arith.addi %494, %349 : i32
    affine.store %495, %alloc_2[0, 14] : memref<1x16xi32>
    %496 = arith.muli %43, %c-6_i32 : i32
    %497 = arith.addi %495, %496 : i32
    affine.store %497, %alloc_2[0, 14] : memref<1x16xi32>
    %498 = arith.muli %0, %c-72_i32 : i32
    %499 = arith.addi %498, %c-5103_i32 : i32
    affine.store %499, %alloc_2[0, 15] : memref<1x16xi32>
    %500 = arith.muli %2, %c-1836_i32 : i32
    %501 = arith.addi %499, %500 : i32
    affine.store %501, %alloc_2[0, 15] : memref<1x16xi32>
    %502 = arith.muli %6, %c38_i32 : i32
    %503 = arith.addi %501, %502 : i32
    affine.store %503, %alloc_2[0, 15] : memref<1x16xi32>
    %504 = arith.muli %9, %c33_i32 : i32
    %505 = arith.addi %503, %504 : i32
    affine.store %505, %alloc_2[0, 15] : memref<1x16xi32>
    %506 = arith.muli %12, %c9_i32 : i32
    %507 = arith.addi %505, %506 : i32
    affine.store %507, %alloc_2[0, 15] : memref<1x16xi32>
    %508 = arith.muli %15, %c8_i32 : i32
    %509 = arith.addi %507, %508 : i32
    affine.store %509, %alloc_2[0, 15] : memref<1x16xi32>
    %510 = arith.muli %18, %c15_i32 : i32
    %511 = arith.addi %509, %510 : i32
    affine.store %511, %alloc_2[0, 15] : memref<1x16xi32>
    %512 = arith.muli %21, %c11_i32 : i32
    %513 = arith.addi %511, %512 : i32
    affine.store %513, %alloc_2[0, 15] : memref<1x16xi32>
    %514 = arith.addi %513, %60 : i32
    affine.store %514, %alloc_2[0, 15] : memref<1x16xi32>
    %515 = arith.muli %25, %c-468_i32 : i32
    %516 = arith.addi %514, %515 : i32
    affine.store %516, %alloc_2[0, 15] : memref<1x16xi32>
    %517 = arith.muli %29, %c-12_i32 : i32
    %518 = arith.addi %516, %517 : i32
    affine.store %518, %alloc_2[0, 15] : memref<1x16xi32>
    %519 = arith.muli %32, %c127_i32 : i32
    %520 = arith.addi %518, %519 : i32
    affine.store %520, %alloc_2[0, 15] : memref<1x16xi32>
    %521 = arith.muli %33, %c2952_i32 : i32
    %522 = arith.addi %520, %521 : i32
    affine.store %522, %alloc_2[0, 15] : memref<1x16xi32>
    %523 = arith.muli %37, %c88_i32 : i32
    %524 = arith.addi %522, %523 : i32
    affine.store %524, %alloc_2[0, 15] : memref<1x16xi32>
    %525 = arith.muli %40, %c-27_i32 : i32
    %526 = arith.addi %524, %525 : i32
    affine.store %526, %alloc_2[0, 15] : memref<1x16xi32>
    %527 = arith.muli %43, %c38_i32 : i32
    %528 = arith.addi %526, %527 : i32
    affine.store %528, %alloc_2[0, 15] : memref<1x16xi32>
    %alloc_3 = memref.alloc() {alignment = 64 : i64} : memref<16x1xi8>
    affine.store %c-39_i8, %alloc_3[0, 0] : memref<16x1xi8>
    affine.store %c59_i8, %alloc_3[1, 0] : memref<16x1xi8>
    affine.store %c39_i8, %alloc_3[2, 0] : memref<16x1xi8>
    affine.store %c21_i8, %alloc_3[3, 0] : memref<16x1xi8>
    affine.store %c28_i8, %alloc_3[4, 0] : memref<16x1xi8>
    affine.store %c-32_i8, %alloc_3[5, 0] : memref<16x1xi8>
    affine.store %c-34_i8, %alloc_3[6, 0] : memref<16x1xi8>
    affine.store %c-35_i8, %alloc_3[7, 0] : memref<16x1xi8>
    affine.store %c15_i8, %alloc_3[8, 0] : memref<16x1xi8>
    affine.store %c27_i8, %alloc_3[9, 0] : memref<16x1xi8>
    affine.store %c-59_i8, %alloc_3[10, 0] : memref<16x1xi8>
    affine.store %c-41_i8, %alloc_3[11, 0] : memref<16x1xi8>
    affine.store %c18_i8, %alloc_3[12, 0] : memref<16x1xi8>
    affine.store %c-35_i8, %alloc_3[13, 0] : memref<16x1xi8>
    affine.store %c-7_i8, %alloc_3[14, 0] : memref<16x1xi8>
    affine.store %c127_i8, %alloc_3[15, 0] : memref<16x1xi8>
    %alloc_4 = memref.alloc() {alignment = 64 : i64} : memref<1x1xi32>
    affine.store %c429_i32, %alloc_4[0, 0] : memref<1x1xi32>
    %529 = arith.muli %75, %c-39_i32 : i32
    %530 = arith.addi %529, %c429_i32 : i32
    affine.store %530, %alloc_4[0, 0] : memref<1x1xi32>
    %531 = arith.muli %104, %c59_i32 : i32
    %532 = arith.addi %530, %531 : i32
    affine.store %532, %alloc_4[0, 0] : memref<1x1xi32>
    %533 = arith.muli %136, %c39_i32 : i32
    %534 = arith.addi %532, %533 : i32
    affine.store %534, %alloc_4[0, 0] : memref<1x1xi32>
    %535 = arith.muli %167, %c21_i32 : i32
    %536 = arith.addi %534, %535 : i32
    affine.store %536, %alloc_4[0, 0] : memref<1x1xi32>
    %537 = arith.muli %198, %c28_i32 : i32
    %538 = arith.addi %536, %537 : i32
    affine.store %538, %alloc_4[0, 0] : memref<1x1xi32>
    %539 = arith.muli %229, %c-32_i32 : i32
    %540 = arith.addi %538, %539 : i32
    affine.store %540, %alloc_4[0, 0] : memref<1x1xi32>
    %541 = arith.muli %261, %c-34_i32 : i32
    %542 = arith.addi %540, %541 : i32
    affine.store %542, %alloc_4[0, 0] : memref<1x1xi32>
    %543 = arith.muli %291, %c-35_i32 : i32
    %544 = arith.addi %542, %543 : i32
    affine.store %544, %alloc_4[0, 0] : memref<1x1xi32>
    %545 = arith.muli %320, %c15_i32 : i32
    %546 = arith.addi %544, %545 : i32
    affine.store %546, %alloc_4[0, 0] : memref<1x1xi32>
    %547 = arith.muli %352, %c27_i32 : i32
    %548 = arith.addi %546, %547 : i32
    affine.store %548, %alloc_4[0, 0] : memref<1x1xi32>
    %549 = arith.muli %381, %c-59_i32 : i32
    %550 = arith.addi %548, %549 : i32
    affine.store %550, %alloc_4[0, 0] : memref<1x1xi32>
    %551 = arith.muli %409, %c-41_i32 : i32
    %552 = arith.addi %550, %551 : i32
    affine.store %552, %alloc_4[0, 0] : memref<1x1xi32>
    %553 = arith.muli %440, %c18_i32 : i32
    %554 = arith.addi %552, %553 : i32
    affine.store %554, %alloc_4[0, 0] : memref<1x1xi32>
    %555 = arith.muli %469, %c-35_i32 : i32
    %556 = arith.addi %554, %555 : i32
    affine.store %556, %alloc_4[0, 0] : memref<1x1xi32>
    %557 = arith.muli %497, %c-7_i32 : i32
    %558 = arith.addi %556, %557 : i32
    affine.store %558, %alloc_4[0, 0] : memref<1x1xi32>
    %559 = arith.muli %528, %c127_i32 : i32
    %560 = arith.addi %558, %559 : i32
    affine.store %560, %alloc_4[0, 0] : memref<1x1xi32>
    memref.dealloc %alloc : memref<1x16xi8>
    memref.dealloc %alloc_0 : memref<1x16xi32>
    memref.dealloc %alloc_1 : memref<16x16xi8>
    memref.dealloc %alloc_2 : memref<1x16xi32>
    memref.dealloc %alloc_3 : memref<16x1xi8>
    return %alloc_4 : memref<1x1xi32>
  }
}
