module {
  func.func @mnist(%5 : tensor<1x32768xf32> {secret.secret}, %25 : tensor<16x32768xf32>, %105 : tensor<1x32768xf32>, %121 : tensor<1x32768xf32>, %148 : tensor<1x32768xf32>) -> tensor<1x32768xf32> {
    %c7 = arith.constant -1 : index
    %c11 = arith.constant -2 : index
    %c14 = arith.constant -4 : index
    %c17 = arith.constant -8 : index
    %c20 = arith.constant -16 : index
    %c23 = arith.constant 0 : index
    %c28 = arith.constant 2048 : index
    %c33 = arith.constant 4096 : index
    %c38 = arith.constant 6144 : index
    %c55 = arith.constant 8192 : index
    %c69 = arith.constant 16384 : index
    %c83 = arith.constant 24576 : index
    %c86 = arith.constant 32 : index
    %c89 = arith.constant 64 : index
    %c92 = arith.constant 128 : index
    %c95 = arith.constant 256 : index
    %c98 = arith.constant 512 : index
    %c101 = arith.constant 1024 : index
    %c109 = arith.constant -32 : index
    %c112 = arith.constant -64 : index
    %c115 = arith.constant -128 : index
    %c118 = arith.constant -256 : index
    %c132 = arith.constant 1 : index
    %c135 = arith.constant 2 : index
    %c138 = arith.constant 4 : index
    %c141 = arith.constant 8 : index
    %c144 = arith.constant 16 : index
    %1 = arith.constant dense<"…"> : tensor<1x32768xf32>
    %2 = arith.constant dense<"…"> : tensor<1x32768xf32>
    %6 = tensor.extract_slice %5 [0, 0] [1, 32768] [1, 1] : tensor<1x32768xf32> to tensor<1x32768xf32>
    %4 = tensor_ext.rotate %6, %c7 : tensor<1x32768xf32>, index
    %9 = tensor.extract_slice %5 [0, 0] [1, 32768] [1, 1] : tensor<1x32768xf32> to tensor<1x32768xf32>
    %8 = arith.addf %4, %9 : tensor<1x32768xf32>
    %10 = tensor_ext.rotate %8, %c11 : tensor<1x32768xf32>, index
    %12 = arith.addf %10, %8 : tensor<1x32768xf32>
    %13 = tensor_ext.rotate %12, %c14 : tensor<1x32768xf32>, index
    %15 = arith.addf %13, %12 : tensor<1x32768xf32>
    %16 = tensor_ext.rotate %15, %c17 : tensor<1x32768xf32>, index
    %18 = arith.addf %16, %15 : tensor<1x32768xf32>
    %19 = tensor_ext.rotate %18, %c20 : tensor<1x32768xf32>, index
    %21 = arith.addf %19, %18 : tensor<1x32768xf32>
    %22 = tensor_ext.rotate %21, %c23 : tensor<1x32768xf32>, index
    %26 = tensor.extract_slice %25 [0, 0] [1, 32768] [1, 1] : tensor<16x32768xf32> to tensor<1x32768xf32>
    %24 = arith.mulf %22, %26 : tensor<1x32768xf32>
    %27 = tensor_ext.rotate %21, %c28 : tensor<1x32768xf32>, index
    %30 = tensor.extract_slice %25 [1, 0] [1, 32768] [1, 1] : tensor<16x32768xf32> to tensor<1x32768xf32>
    %29 = arith.mulf %27, %30 : tensor<1x32768xf32>
    %31 = arith.addf %24, %29 : tensor<1x32768xf32>
    %32 = tensor_ext.rotate %21, %c33 : tensor<1x32768xf32>, index
    %35 = tensor.extract_slice %25 [2, 0] [1, 32768] [1, 1] : tensor<16x32768xf32> to tensor<1x32768xf32>
    %34 = arith.mulf %32, %35 : tensor<1x32768xf32>
    %36 = arith.addf %31, %34 : tensor<1x32768xf32>
    %37 = tensor_ext.rotate %21, %c38 : tensor<1x32768xf32>, index
    %40 = tensor.extract_slice %25 [3, 0] [1, 32768] [1, 1] : tensor<16x32768xf32> to tensor<1x32768xf32>
    %39 = arith.mulf %37, %40 : tensor<1x32768xf32>
    %41 = arith.addf %36, %39 : tensor<1x32768xf32>
    %42 = tensor_ext.rotate %41, %c23 : tensor<1x32768xf32>, index
    %44 = tensor.extract_slice %25 [4, 0] [1, 32768] [1, 1] : tensor<16x32768xf32> to tensor<1x32768xf32>
    %43 = arith.mulf %22, %44 : tensor<1x32768xf32>
    %46 = tensor.extract_slice %25 [5, 0] [1, 32768] [1, 1] : tensor<16x32768xf32> to tensor<1x32768xf32>
    %45 = arith.mulf %27, %46 : tensor<1x32768xf32>
    %47 = arith.addf %43, %45 : tensor<1x32768xf32>
    %49 = tensor.extract_slice %25 [6, 0] [1, 32768] [1, 1] : tensor<16x32768xf32> to tensor<1x32768xf32>
    %48 = arith.mulf %32, %49 : tensor<1x32768xf32>
    %50 = arith.addf %47, %48 : tensor<1x32768xf32>
    %52 = tensor.extract_slice %25 [7, 0] [1, 32768] [1, 1] : tensor<16x32768xf32> to tensor<1x32768xf32>
    %51 = arith.mulf %37, %52 : tensor<1x32768xf32>
    %53 = arith.addf %50, %51 : tensor<1x32768xf32>
    %54 = tensor_ext.rotate %53, %c55 : tensor<1x32768xf32>, index
    %56 = arith.addf %42, %54 : tensor<1x32768xf32>
    %58 = tensor.extract_slice %25 [8, 0] [1, 32768] [1, 1] : tensor<16x32768xf32> to tensor<1x32768xf32>
    %57 = arith.mulf %22, %58 : tensor<1x32768xf32>
    %60 = tensor.extract_slice %25 [9, 0] [1, 32768] [1, 1] : tensor<16x32768xf32> to tensor<1x32768xf32>
    %59 = arith.mulf %27, %60 : tensor<1x32768xf32>
    %61 = arith.addf %57, %59 : tensor<1x32768xf32>
    %63 = tensor.extract_slice %25 [10, 0] [1, 32768] [1, 1] : tensor<16x32768xf32> to tensor<1x32768xf32>
    %62 = arith.mulf %32, %63 : tensor<1x32768xf32>
    %64 = arith.addf %61, %62 : tensor<1x32768xf32>
    %66 = tensor.extract_slice %25 [11, 0] [1, 32768] [1, 1] : tensor<16x32768xf32> to tensor<1x32768xf32>
    %65 = arith.mulf %37, %66 : tensor<1x32768xf32>
    %67 = arith.addf %64, %65 : tensor<1x32768xf32>
    %68 = tensor_ext.rotate %67, %c69 : tensor<1x32768xf32>, index
    %70 = arith.addf %56, %68 : tensor<1x32768xf32>
    %72 = tensor.extract_slice %25 [12, 0] [1, 32768] [1, 1] : tensor<16x32768xf32> to tensor<1x32768xf32>
    %71 = arith.mulf %22, %72 : tensor<1x32768xf32>
    %74 = tensor.extract_slice %25 [13, 0] [1, 32768] [1, 1] : tensor<16x32768xf32> to tensor<1x32768xf32>
    %73 = arith.mulf %27, %74 : tensor<1x32768xf32>
    %75 = arith.addf %71, %73 : tensor<1x32768xf32>
    %77 = tensor.extract_slice %25 [14, 0] [1, 32768] [1, 1] : tensor<16x32768xf32> to tensor<1x32768xf32>
    %76 = arith.mulf %32, %77 : tensor<1x32768xf32>
    %78 = arith.addf %75, %76 : tensor<1x32768xf32>
    %80 = tensor.extract_slice %25 [15, 0] [1, 32768] [1, 1] : tensor<16x32768xf32> to tensor<1x32768xf32>
    %79 = arith.mulf %37, %80 : tensor<1x32768xf32>
    %81 = arith.addf %78, %79 : tensor<1x32768xf32>
    %82 = tensor_ext.rotate %81, %c83 : tensor<1x32768xf32>, index
    %84 = arith.addf %70, %82 : tensor<1x32768xf32>
    %85 = tensor_ext.rotate %84, %c86 : tensor<1x32768xf32>, index
    %87 = arith.addf %85, %84 : tensor<1x32768xf32>
    %88 = tensor_ext.rotate %87, %c89 : tensor<1x32768xf32>, index
    %90 = arith.addf %88, %87 : tensor<1x32768xf32>
    %91 = tensor_ext.rotate %90, %c92 : tensor<1x32768xf32>, index
    %93 = arith.addf %91, %90 : tensor<1x32768xf32>
    %94 = tensor_ext.rotate %93, %c95 : tensor<1x32768xf32>, index
    %96 = arith.addf %94, %93 : tensor<1x32768xf32>
    %97 = tensor_ext.rotate %96, %c98 : tensor<1x32768xf32>, index
    %99 = arith.addf %97, %96 : tensor<1x32768xf32>
    %100 = tensor_ext.rotate %99, %c101 : tensor<1x32768xf32>, index
    %102 = arith.addf %100, %99 : tensor<1x32768xf32>
    %103 = arith.mulf %102, %1 : tensor<1x32768xf32>
    %106 = tensor.extract_slice %105 [0, 0] [1, 32768] [1, 1] : tensor<1x32768xf32> to tensor<1x32768xf32>
    %104 = arith.addf %103, %106 : tensor<1x32768xf32>
    %107 = call @relu(%104) {domain_lower = -20.0, domain_upper = 20.0} : (tensor<1x32768xf32>) -> (tensor<1x32768xf32>)
    %108 = tensor_ext.rotate %107, %c109 : tensor<1x32768xf32>, index
    %110 = arith.addf %108, %107 : tensor<1x32768xf32>
    %111 = tensor_ext.rotate %110, %c112 : tensor<1x32768xf32>, index
    %113 = arith.addf %111, %110 : tensor<1x32768xf32>
    %114 = tensor_ext.rotate %113, %c115 : tensor<1x32768xf32>, index
    %116 = arith.addf %114, %113 : tensor<1x32768xf32>
    %117 = tensor_ext.rotate %116, %c118 : tensor<1x32768xf32>, index
    %119 = arith.addf %117, %116 : tensor<1x32768xf32>
    %122 = tensor.extract_slice %121 [0, 0] [1, 32768] [1, 1] : tensor<1x32768xf32> to tensor<1x32768xf32>
    %120 = arith.mulf %119, %122 : tensor<1x32768xf32>
    %123 = tensor_ext.rotate %120, %c28 : tensor<1x32768xf32>, index
    %124 = arith.addf %123, %120 : tensor<1x32768xf32>
    %125 = tensor_ext.rotate %124, %c33 : tensor<1x32768xf32>, index
    %126 = arith.addf %125, %124 : tensor<1x32768xf32>
    %127 = tensor_ext.rotate %126, %c55 : tensor<1x32768xf32>, index
    %128 = arith.addf %127, %126 : tensor<1x32768xf32>
    %129 = tensor_ext.rotate %128, %c69 : tensor<1x32768xf32>, index
    %130 = arith.addf %129, %128 : tensor<1x32768xf32>
    %131 = tensor_ext.rotate %130, %c132 : tensor<1x32768xf32>, index
    %133 = arith.addf %131, %130 : tensor<1x32768xf32>
    %134 = tensor_ext.rotate %133, %c135 : tensor<1x32768xf32>, index
    %136 = arith.addf %134, %133 : tensor<1x32768xf32>
    %137 = tensor_ext.rotate %136, %c138 : tensor<1x32768xf32>, index
    %139 = arith.addf %137, %136 : tensor<1x32768xf32>
    %140 = tensor_ext.rotate %139, %c141 : tensor<1x32768xf32>, index
    %142 = arith.addf %140, %139 : tensor<1x32768xf32>
    %143 = tensor_ext.rotate %142, %c144 : tensor<1x32768xf32>, index
    %145 = arith.addf %143, %142 : tensor<1x32768xf32>
    %146 = arith.mulf %145, %2 : tensor<1x32768xf32>
    %149 = tensor.extract_slice %148 [0, 0] [1, 32768] [1, 1] : tensor<1x32768xf32> to tensor<1x32768xf32>
    %147 = arith.addf %146, %149 : tensor<1x32768xf32>
    return %147 : tensor<1x32768xf32>
  }

  func.func private @relu(%arg0: tensor<1x32768xf32>) -> tensor<1x32768xf32> {
    %cst = arith.constant dense<0.000000e+00> : tensor<f32>
    %0 = tensor.empty() : tensor<1x32768xf32>
    %broadcasted = linalg.broadcast ins(%cst : tensor<f32>) outs(%0 : tensor<1x32768xf32>) dimensions = [0, 1]
    %1 = tensor.empty() : tensor<1x32768xf32>
    %mapped = linalg.map { arith.maximumf } ins(%arg0, %broadcasted : tensor<1x32768xf32>, tensor<1x32768xf32>) outs(%1 : tensor<1x32768xf32>)
    return %mapped : tensor<1x32768xf32>
  }
}
